{
    "format": "layers-model",
    "generatedBy": "keras v2.15.0",
    "convertedBy": "TensorFlow.js Converter v4.15.0",
    "modelTopology": {
        "keras_version": "2.15.0",
        "backend": "tensorflow",
        "model_config": {
            "class_name": "Functional",
            "config": {
                "name": "model",
                "trainable": true,
                "layers": [
                    {
                        "class_name": "InputLayer",
                        "config": {
                            "batch_input_shape": [
                                null,
                                224,
                                224,
                                3
                            ],
                            "dtype": "float32",
                            "sparse": false,
                            "ragged": false,
                            "name": "input_1"
                        },
                        "name": "input_1",
                        "inbound_nodes": []
                    },
                    {
                        "class_name": "ZeroPadding2D",
                        "config": {
                            "name": "conv1_pad",
                            "trainable": false,
                            "dtype": "float32",
                            "padding": [
                                [
                                    3,
                                    3
                                ],
                                [
                                    3,
                                    3
                                ]
                            ],
                            "data_format": "channels_last"
                        },
                        "name": "conv1_pad",
                        "inbound_nodes": [
                            [
                                [
                                    "input_1",
                                    0,
                                    0,
                                    {}
                                ]
                            ]
                        ]
                    },
                    {
                        "class_name": "Conv2D",
                        "config": {
                            "name": "conv1_conv",
                            "trainable": false,
                            "dtype": "float32",
                            "filters": 64,
                            "kernel_size": [
                                7,
                                7
                            ],
                            "strides": [
                                2,
                                2
                            ],
                            "padding": "valid",
                            "data_format": "channels_last",
                            "dilation_rate": [
                                1,
                                1
                            ],
                            "groups": 1,
                            "activation": "linear",
                            "use_bias": true,
                            "kernel_initializer": {
                                "module": "keras.initializers",
                                "class_name": "GlorotUniform",
                                "config": {
                                    "seed": null
                                },
                                "registered_name": null
                            },
                            "bias_initializer": {
                                "module": "keras.initializers",
                                "class_name": "Zeros",
                                "config": {},
                                "registered_name": null
                            },
                            "kernel_regularizer": null,
                            "bias_regularizer": null,
                            "activity_regularizer": null,
                            "kernel_constraint": null,
                            "bias_constraint": null
                        },
                        "name": "conv1_conv",
                        "inbound_nodes": [
                            [
                                [
                                    "conv1_pad",
                                    0,
                                    0,
                                    {}
                                ]
                            ]
                        ]
                    },
                    {
                        "class_name": "ZeroPadding2D",
                        "config": {
                            "name": "pool1_pad",
                            "trainable": false,
                            "dtype": "float32",
                            "padding": [
                                [
                                    1,
                                    1
                                ],
                                [
                                    1,
                                    1
                                ]
                            ],
                            "data_format": "channels_last"
                        },
                        "name": "pool1_pad",
                        "inbound_nodes": [
                            [
                                [
                                    "conv1_conv",
                                    0,
                                    0,
                                    {}
                                ]
                            ]
                        ]
                    },
                    {
                        "class_name": "MaxPooling2D",
                        "config": {
                            "name": "pool1_pool",
                            "trainable": false,
                            "dtype": "float32",
                            "pool_size": [
                                3,
                                3
                            ],
                            "padding": "valid",
                            "strides": [
                                2,
                                2
                            ],
                            "data_format": "channels_last"
                        },
                        "name": "pool1_pool",
                        "inbound_nodes": [
                            [
                                [
                                    "pool1_pad",
                                    0,
                                    0,
                                    {}
                                ]
                            ]
                        ]
                    },
                    {
                        "class_name": "BatchNormalization",
                        "config": {
                            "name": "conv2_block1_preact_bn",
                            "trainable": false,
                            "dtype": "float32",
                            "axis": [
                                3
                            ],
                            "momentum": 0.99,
                            "epsilon": 1.001e-05,
                            "center": true,
                            "scale": true,
                            "beta_initializer": {
                                "module": "keras.initializers",
                                "class_name": "Zeros",
                                "config": {},
                                "registered_name": null
                            },
                            "gamma_initializer": {
                                "module": "keras.initializers",
                                "class_name": "Ones",
                                "config": {},
                                "registered_name": null
                            },
                            "moving_mean_initializer": {
                                "module": "keras.initializers",
                                "class_name": "Zeros",
                                "config": {},
                                "registered_name": null
                            },
                            "moving_variance_initializer": {
                                "module": "keras.initializers",
                                "class_name": "Ones",
                                "config": {},
                                "registered_name": null
                            },
                            "beta_regularizer": null,
                            "gamma_regularizer": null,
                            "beta_constraint": null,
                            "gamma_constraint": null
                        },
                        "name": "conv2_block1_preact_bn",
                        "inbound_nodes": [
                            [
                                [
                                    "pool1_pool",
                                    0,
                                    0,
                                    {}
                                ]
                            ]
                        ]
                    },
                    {
                        "class_name": "Activation",
                        "config": {
                            "name": "conv2_block1_preact_relu",
                            "trainable": false,
                            "dtype": "float32",
                            "activation": "relu"
                        },
                        "name": "conv2_block1_preact_relu",
                        "inbound_nodes": [
                            [
                                [
                                    "conv2_block1_preact_bn",
                                    0,
                                    0,
                                    {}
                                ]
                            ]
                        ]
                    },
                    {
                        "class_name": "Conv2D",
                        "config": {
                            "name": "conv2_block1_1_conv",
                            "trainable": false,
                            "dtype": "float32",
                            "filters": 64,
                            "kernel_size": [
                                1,
                                1
                            ],
                            "strides": [
                                1,
                                1
                            ],
                            "padding": "valid",
                            "data_format": "channels_last",
                            "dilation_rate": [
                                1,
                                1
                            ],
                            "groups": 1,
                            "activation": "linear",
                            "use_bias": false,
                            "kernel_initializer": {
                                "module": "keras.initializers",
                                "class_name": "GlorotUniform",
                                "config": {
                                    "seed": null
                                },
                                "registered_name": null
                            },
                            "bias_initializer": {
                                "module": "keras.initializers",
                                "class_name": "Zeros",
                                "config": {},
                                "registered_name": null
                            },
                            "kernel_regularizer": null,
                            "bias_regularizer": null,
                            "activity_regularizer": null,
                            "kernel_constraint": null,
                            "bias_constraint": null
                        },
                        "name": "conv2_block1_1_conv",
                        "inbound_nodes": [
                            [
                                [
                                    "conv2_block1_preact_relu",
                                    0,
                                    0,
                                    {}
                                ]
                            ]
                        ]
                    },
                    {
                        "class_name": "BatchNormalization",
                        "config": {
                            "name": "conv2_block1_1_bn",
                            "trainable": false,
                            "dtype": "float32",
                            "axis": [
                                3
                            ],
                            "momentum": 0.99,
                            "epsilon": 1.001e-05,
                            "center": true,
                            "scale": true,
                            "beta_initializer": {
                                "module": "keras.initializers",
                                "class_name": "Zeros",
                                "config": {},
                                "registered_name": null
                            },
                            "gamma_initializer": {
                                "module": "keras.initializers",
                                "class_name": "Ones",
                                "config": {},
                                "registered_name": null
                            },
                            "moving_mean_initializer": {
                                "module": "keras.initializers",
                                "class_name": "Zeros",
                                "config": {},
                                "registered_name": null
                            },
                            "moving_variance_initializer": {
                                "module": "keras.initializers",
                                "class_name": "Ones",
                                "config": {},
                                "registered_name": null
                            },
                            "beta_regularizer": null,
                            "gamma_regularizer": null,
                            "beta_constraint": null,
                            "gamma_constraint": null
                        },
                        "name": "conv2_block1_1_bn",
                        "inbound_nodes": [
                            [
                                [
                                    "conv2_block1_1_conv",
                                    0,
                                    0,
                                    {}
                                ]
                            ]
                        ]
                    },
                    {
                        "class_name": "Activation",
                        "config": {
                            "name": "conv2_block1_1_relu",
                            "trainable": false,
                            "dtype": "float32",
                            "activation": "relu"
                        },
                        "name": "conv2_block1_1_relu",
                        "inbound_nodes": [
                            [
                                [
                                    "conv2_block1_1_bn",
                                    0,
                                    0,
                                    {}
                                ]
                            ]
                        ]
                    },
                    {
                        "class_name": "ZeroPadding2D",
                        "config": {
                            "name": "conv2_block1_2_pad",
                            "trainable": false,
                            "dtype": "float32",
                            "padding": [
                                [
                                    1,
                                    1
                                ],
                                [
                                    1,
                                    1
                                ]
                            ],
                            "data_format": "channels_last"
                        },
                        "name": "conv2_block1_2_pad",
                        "inbound_nodes": [
                            [
                                [
                                    "conv2_block1_1_relu",
                                    0,
                                    0,
                                    {}
                                ]
                            ]
                        ]
                    },
                    {
                        "class_name": "Conv2D",
                        "config": {
                            "name": "conv2_block1_2_conv",
                            "trainable": false,
                            "dtype": "float32",
                            "filters": 64,
                            "kernel_size": [
                                3,
                                3
                            ],
                            "strides": [
                                1,
                                1
                            ],
                            "padding": "valid",
                            "data_format": "channels_last",
                            "dilation_rate": [
                                1,
                                1
                            ],
                            "groups": 1,
                            "activation": "linear",
                            "use_bias": false,
                            "kernel_initializer": {
                                "module": "keras.initializers",
                                "class_name": "GlorotUniform",
                                "config": {
                                    "seed": null
                                },
                                "registered_name": null
                            },
                            "bias_initializer": {
                                "module": "keras.initializers",
                                "class_name": "Zeros",
                                "config": {},
                                "registered_name": null
                            },
                            "kernel_regularizer": null,
                            "bias_regularizer": null,
                            "activity_regularizer": null,
                            "kernel_constraint": null,
                            "bias_constraint": null
                        },
                        "name": "conv2_block1_2_conv",
                        "inbound_nodes": [
                            [
                                [
                                    "conv2_block1_2_pad",
                                    0,
                                    0,
                                    {}
                                ]
                            ]
                        ]
                    },
                    {
                        "class_name": "BatchNormalization",
                        "config": {
                            "name": "conv2_block1_2_bn",
                            "trainable": false,
                            "dtype": "float32",
                            "axis": [
                                3
                            ],
                            "momentum": 0.99,
                            "epsilon": 1.001e-05,
                            "center": true,
                            "scale": true,
                            "beta_initializer": {
                                "module": "keras.initializers",
                                "class_name": "Zeros",
                                "config": {},
                                "registered_name": null
                            },
                            "gamma_initializer": {
                                "module": "keras.initializers",
                                "class_name": "Ones",
                                "config": {},
                                "registered_name": null
                            },
                            "moving_mean_initializer": {
                                "module": "keras.initializers",
                                "class_name": "Zeros",
                                "config": {},
                                "registered_name": null
                            },
                            "moving_variance_initializer": {
                                "module": "keras.initializers",
                                "class_name": "Ones",
                                "config": {},
                                "registered_name": null
                            },
                            "beta_regularizer": null,
                            "gamma_regularizer": null,
                            "beta_constraint": null,
                            "gamma_constraint": null
                        },
                        "name": "conv2_block1_2_bn",
                        "inbound_nodes": [
                            [
                                [
                                    "conv2_block1_2_conv",
                                    0,
                                    0,
                                    {}
                                ]
                            ]
                        ]
                    },
                    {
                        "class_name": "Activation",
                        "config": {
                            "name": "conv2_block1_2_relu",
                            "trainable": false,
                            "dtype": "float32",
                            "activation": "relu"
                        },
                        "name": "conv2_block1_2_relu",
                        "inbound_nodes": [
                            [
                                [
                                    "conv2_block1_2_bn",
                                    0,
                                    0,
                                    {}
                                ]
                            ]
                        ]
                    },
                    {
                        "class_name": "Conv2D",
                        "config": {
                            "name": "conv2_block1_0_conv",
                            "trainable": false,
                            "dtype": "float32",
                            "filters": 256,
                            "kernel_size": [
                                1,
                                1
                            ],
                            "strides": [
                                1,
                                1
                            ],
                            "padding": "valid",
                            "data_format": "channels_last",
                            "dilation_rate": [
                                1,
                                1
                            ],
                            "groups": 1,
                            "activation": "linear",
                            "use_bias": true,
                            "kernel_initializer": {
                                "module": "keras.initializers",
                                "class_name": "GlorotUniform",
                                "config": {
                                    "seed": null
                                },
                                "registered_name": null
                            },
                            "bias_initializer": {
                                "module": "keras.initializers",
                                "class_name": "Zeros",
                                "config": {},
                                "registered_name": null
                            },
                            "kernel_regularizer": null,
                            "bias_regularizer": null,
                            "activity_regularizer": null,
                            "kernel_constraint": null,
                            "bias_constraint": null
                        },
                        "name": "conv2_block1_0_conv",
                        "inbound_nodes": [
                            [
                                [
                                    "conv2_block1_preact_relu",
                                    0,
                                    0,
                                    {}
                                ]
                            ]
                        ]
                    },
                    {
                        "class_name": "Conv2D",
                        "config": {
                            "name": "conv2_block1_3_conv",
                            "trainable": false,
                            "dtype": "float32",
                            "filters": 256,
                            "kernel_size": [
                                1,
                                1
                            ],
                            "strides": [
                                1,
                                1
                            ],
                            "padding": "valid",
                            "data_format": "channels_last",
                            "dilation_rate": [
                                1,
                                1
                            ],
                            "groups": 1,
                            "activation": "linear",
                            "use_bias": true,
                            "kernel_initializer": {
                                "module": "keras.initializers",
                                "class_name": "GlorotUniform",
                                "config": {
                                    "seed": null
                                },
                                "registered_name": null
                            },
                            "bias_initializer": {
                                "module": "keras.initializers",
                                "class_name": "Zeros",
                                "config": {},
                                "registered_name": null
                            },
                            "kernel_regularizer": null,
                            "bias_regularizer": null,
                            "activity_regularizer": null,
                            "kernel_constraint": null,
                            "bias_constraint": null
                        },
                        "name": "conv2_block1_3_conv",
                        "inbound_nodes": [
                            [
                                [
                                    "conv2_block1_2_relu",
                                    0,
                                    0,
                                    {}
                                ]
                            ]
                        ]
                    },
                    {
                        "class_name": "Add",
                        "config": {
                            "name": "conv2_block1_out",
                            "trainable": false,
                            "dtype": "float32"
                        },
                        "name": "conv2_block1_out",
                        "inbound_nodes": [
                            [
                                [
                                    "conv2_block1_0_conv",
                                    0,
                                    0,
                                    {}
                                ],
                                [
                                    "conv2_block1_3_conv",
                                    0,
                                    0,
                                    {}
                                ]
                            ]
                        ]
                    },
                    {
                        "class_name": "BatchNormalization",
                        "config": {
                            "name": "conv2_block2_preact_bn",
                            "trainable": false,
                            "dtype": "float32",
                            "axis": [
                                3
                            ],
                            "momentum": 0.99,
                            "epsilon": 1.001e-05,
                            "center": true,
                            "scale": true,
                            "beta_initializer": {
                                "module": "keras.initializers",
                                "class_name": "Zeros",
                                "config": {},
                                "registered_name": null
                            },
                            "gamma_initializer": {
                                "module": "keras.initializers",
                                "class_name": "Ones",
                                "config": {},
                                "registered_name": null
                            },
                            "moving_mean_initializer": {
                                "module": "keras.initializers",
                                "class_name": "Zeros",
                                "config": {},
                                "registered_name": null
                            },
                            "moving_variance_initializer": {
                                "module": "keras.initializers",
                                "class_name": "Ones",
                                "config": {},
                                "registered_name": null
                            },
                            "beta_regularizer": null,
                            "gamma_regularizer": null,
                            "beta_constraint": null,
                            "gamma_constraint": null
                        },
                        "name": "conv2_block2_preact_bn",
                        "inbound_nodes": [
                            [
                                [
                                    "conv2_block1_out",
                                    0,
                                    0,
                                    {}
                                ]
                            ]
                        ]
                    },
                    {
                        "class_name": "Activation",
                        "config": {
                            "name": "conv2_block2_preact_relu",
                            "trainable": false,
                            "dtype": "float32",
                            "activation": "relu"
                        },
                        "name": "conv2_block2_preact_relu",
                        "inbound_nodes": [
                            [
                                [
                                    "conv2_block2_preact_bn",
                                    0,
                                    0,
                                    {}
                                ]
                            ]
                        ]
                    },
                    {
                        "class_name": "Conv2D",
                        "config": {
                            "name": "conv2_block2_1_conv",
                            "trainable": false,
                            "dtype": "float32",
                            "filters": 64,
                            "kernel_size": [
                                1,
                                1
                            ],
                            "strides": [
                                1,
                                1
                            ],
                            "padding": "valid",
                            "data_format": "channels_last",
                            "dilation_rate": [
                                1,
                                1
                            ],
                            "groups": 1,
                            "activation": "linear",
                            "use_bias": false,
                            "kernel_initializer": {
                                "module": "keras.initializers",
                                "class_name": "GlorotUniform",
                                "config": {
                                    "seed": null
                                },
                                "registered_name": null
                            },
                            "bias_initializer": {
                                "module": "keras.initializers",
                                "class_name": "Zeros",
                                "config": {},
                                "registered_name": null
                            },
                            "kernel_regularizer": null,
                            "bias_regularizer": null,
                            "activity_regularizer": null,
                            "kernel_constraint": null,
                            "bias_constraint": null
                        },
                        "name": "conv2_block2_1_conv",
                        "inbound_nodes": [
                            [
                                [
                                    "conv2_block2_preact_relu",
                                    0,
                                    0,
                                    {}
                                ]
                            ]
                        ]
                    },
                    {
                        "class_name": "BatchNormalization",
                        "config": {
                            "name": "conv2_block2_1_bn",
                            "trainable": false,
                            "dtype": "float32",
                            "axis": [
                                3
                            ],
                            "momentum": 0.99,
                            "epsilon": 1.001e-05,
                            "center": true,
                            "scale": true,
                            "beta_initializer": {
                                "module": "keras.initializers",
                                "class_name": "Zeros",
                                "config": {},
                                "registered_name": null
                            },
                            "gamma_initializer": {
                                "module": "keras.initializers",
                                "class_name": "Ones",
                                "config": {},
                                "registered_name": null
                            },
                            "moving_mean_initializer": {
                                "module": "keras.initializers",
                                "class_name": "Zeros",
                                "config": {},
                                "registered_name": null
                            },
                            "moving_variance_initializer": {
                                "module": "keras.initializers",
                                "class_name": "Ones",
                                "config": {},
                                "registered_name": null
                            },
                            "beta_regularizer": null,
                            "gamma_regularizer": null,
                            "beta_constraint": null,
                            "gamma_constraint": null
                        },
                        "name": "conv2_block2_1_bn",
                        "inbound_nodes": [
                            [
                                [
                                    "conv2_block2_1_conv",
                                    0,
                                    0,
                                    {}
                                ]
                            ]
                        ]
                    },
                    {
                        "class_name": "Activation",
                        "config": {
                            "name": "conv2_block2_1_relu",
                            "trainable": false,
                            "dtype": "float32",
                            "activation": "relu"
                        },
                        "name": "conv2_block2_1_relu",
                        "inbound_nodes": [
                            [
                                [
                                    "conv2_block2_1_bn",
                                    0,
                                    0,
                                    {}
                                ]
                            ]
                        ]
                    },
                    {
                        "class_name": "ZeroPadding2D",
                        "config": {
                            "name": "conv2_block2_2_pad",
                            "trainable": false,
                            "dtype": "float32",
                            "padding": [
                                [
                                    1,
                                    1
                                ],
                                [
                                    1,
                                    1
                                ]
                            ],
                            "data_format": "channels_last"
                        },
                        "name": "conv2_block2_2_pad",
                        "inbound_nodes": [
                            [
                                [
                                    "conv2_block2_1_relu",
                                    0,
                                    0,
                                    {}
                                ]
                            ]
                        ]
                    },
                    {
                        "class_name": "Conv2D",
                        "config": {
                            "name": "conv2_block2_2_conv",
                            "trainable": false,
                            "dtype": "float32",
                            "filters": 64,
                            "kernel_size": [
                                3,
                                3
                            ],
                            "strides": [
                                1,
                                1
                            ],
                            "padding": "valid",
                            "data_format": "channels_last",
                            "dilation_rate": [
                                1,
                                1
                            ],
                            "groups": 1,
                            "activation": "linear",
                            "use_bias": false,
                            "kernel_initializer": {
                                "module": "keras.initializers",
                                "class_name": "GlorotUniform",
                                "config": {
                                    "seed": null
                                },
                                "registered_name": null
                            },
                            "bias_initializer": {
                                "module": "keras.initializers",
                                "class_name": "Zeros",
                                "config": {},
                                "registered_name": null
                            },
                            "kernel_regularizer": null,
                            "bias_regularizer": null,
                            "activity_regularizer": null,
                            "kernel_constraint": null,
                            "bias_constraint": null
                        },
                        "name": "conv2_block2_2_conv",
                        "inbound_nodes": [
                            [
                                [
                                    "conv2_block2_2_pad",
                                    0,
                                    0,
                                    {}
                                ]
                            ]
                        ]
                    },
                    {
                        "class_name": "BatchNormalization",
                        "config": {
                            "name": "conv2_block2_2_bn",
                            "trainable": false,
                            "dtype": "float32",
                            "axis": [
                                3
                            ],
                            "momentum": 0.99,
                            "epsilon": 1.001e-05,
                            "center": true,
                            "scale": true,
                            "beta_initializer": {
                                "module": "keras.initializers",
                                "class_name": "Zeros",
                                "config": {},
                                "registered_name": null
                            },
                            "gamma_initializer": {
                                "module": "keras.initializers",
                                "class_name": "Ones",
                                "config": {},
                                "registered_name": null
                            },
                            "moving_mean_initializer": {
                                "module": "keras.initializers",
                                "class_name": "Zeros",
                                "config": {},
                                "registered_name": null
                            },
                            "moving_variance_initializer": {
                                "module": "keras.initializers",
                                "class_name": "Ones",
                                "config": {},
                                "registered_name": null
                            },
                            "beta_regularizer": null,
                            "gamma_regularizer": null,
                            "beta_constraint": null,
                            "gamma_constraint": null
                        },
                        "name": "conv2_block2_2_bn",
                        "inbound_nodes": [
                            [
                                [
                                    "conv2_block2_2_conv",
                                    0,
                                    0,
                                    {}
                                ]
                            ]
                        ]
                    },
                    {
                        "class_name": "Activation",
                        "config": {
                            "name": "conv2_block2_2_relu",
                            "trainable": false,
                            "dtype": "float32",
                            "activation": "relu"
                        },
                        "name": "conv2_block2_2_relu",
                        "inbound_nodes": [
                            [
                                [
                                    "conv2_block2_2_bn",
                                    0,
                                    0,
                                    {}
                                ]
                            ]
                        ]
                    },
                    {
                        "class_name": "Conv2D",
                        "config": {
                            "name": "conv2_block2_3_conv",
                            "trainable": false,
                            "dtype": "float32",
                            "filters": 256,
                            "kernel_size": [
                                1,
                                1
                            ],
                            "strides": [
                                1,
                                1
                            ],
                            "padding": "valid",
                            "data_format": "channels_last",
                            "dilation_rate": [
                                1,
                                1
                            ],
                            "groups": 1,
                            "activation": "linear",
                            "use_bias": true,
                            "kernel_initializer": {
                                "module": "keras.initializers",
                                "class_name": "GlorotUniform",
                                "config": {
                                    "seed": null
                                },
                                "registered_name": null
                            },
                            "bias_initializer": {
                                "module": "keras.initializers",
                                "class_name": "Zeros",
                                "config": {},
                                "registered_name": null
                            },
                            "kernel_regularizer": null,
                            "bias_regularizer": null,
                            "activity_regularizer": null,
                            "kernel_constraint": null,
                            "bias_constraint": null
                        },
                        "name": "conv2_block2_3_conv",
                        "inbound_nodes": [
                            [
                                [
                                    "conv2_block2_2_relu",
                                    0,
                                    0,
                                    {}
                                ]
                            ]
                        ]
                    },
                    {
                        "class_name": "Add",
                        "config": {
                            "name": "conv2_block2_out",
                            "trainable": false,
                            "dtype": "float32"
                        },
                        "name": "conv2_block2_out",
                        "inbound_nodes": [
                            [
                                [
                                    "conv2_block1_out",
                                    0,
                                    0,
                                    {}
                                ],
                                [
                                    "conv2_block2_3_conv",
                                    0,
                                    0,
                                    {}
                                ]
                            ]
                        ]
                    },
                    {
                        "class_name": "BatchNormalization",
                        "config": {
                            "name": "conv2_block3_preact_bn",
                            "trainable": false,
                            "dtype": "float32",
                            "axis": [
                                3
                            ],
                            "momentum": 0.99,
                            "epsilon": 1.001e-05,
                            "center": true,
                            "scale": true,
                            "beta_initializer": {
                                "module": "keras.initializers",
                                "class_name": "Zeros",
                                "config": {},
                                "registered_name": null
                            },
                            "gamma_initializer": {
                                "module": "keras.initializers",
                                "class_name": "Ones",
                                "config": {},
                                "registered_name": null
                            },
                            "moving_mean_initializer": {
                                "module": "keras.initializers",
                                "class_name": "Zeros",
                                "config": {},
                                "registered_name": null
                            },
                            "moving_variance_initializer": {
                                "module": "keras.initializers",
                                "class_name": "Ones",
                                "config": {},
                                "registered_name": null
                            },
                            "beta_regularizer": null,
                            "gamma_regularizer": null,
                            "beta_constraint": null,
                            "gamma_constraint": null
                        },
                        "name": "conv2_block3_preact_bn",
                        "inbound_nodes": [
                            [
                                [
                                    "conv2_block2_out",
                                    0,
                                    0,
                                    {}
                                ]
                            ]
                        ]
                    },
                    {
                        "class_name": "Activation",
                        "config": {
                            "name": "conv2_block3_preact_relu",
                            "trainable": false,
                            "dtype": "float32",
                            "activation": "relu"
                        },
                        "name": "conv2_block3_preact_relu",
                        "inbound_nodes": [
                            [
                                [
                                    "conv2_block3_preact_bn",
                                    0,
                                    0,
                                    {}
                                ]
                            ]
                        ]
                    },
                    {
                        "class_name": "Conv2D",
                        "config": {
                            "name": "conv2_block3_1_conv",
                            "trainable": false,
                            "dtype": "float32",
                            "filters": 64,
                            "kernel_size": [
                                1,
                                1
                            ],
                            "strides": [
                                1,
                                1
                            ],
                            "padding": "valid",
                            "data_format": "channels_last",
                            "dilation_rate": [
                                1,
                                1
                            ],
                            "groups": 1,
                            "activation": "linear",
                            "use_bias": false,
                            "kernel_initializer": {
                                "module": "keras.initializers",
                                "class_name": "GlorotUniform",
                                "config": {
                                    "seed": null
                                },
                                "registered_name": null
                            },
                            "bias_initializer": {
                                "module": "keras.initializers",
                                "class_name": "Zeros",
                                "config": {},
                                "registered_name": null
                            },
                            "kernel_regularizer": null,
                            "bias_regularizer": null,
                            "activity_regularizer": null,
                            "kernel_constraint": null,
                            "bias_constraint": null
                        },
                        "name": "conv2_block3_1_conv",
                        "inbound_nodes": [
                            [
                                [
                                    "conv2_block3_preact_relu",
                                    0,
                                    0,
                                    {}
                                ]
                            ]
                        ]
                    },
                    {
                        "class_name": "BatchNormalization",
                        "config": {
                            "name": "conv2_block3_1_bn",
                            "trainable": false,
                            "dtype": "float32",
                            "axis": [
                                3
                            ],
                            "momentum": 0.99,
                            "epsilon": 1.001e-05,
                            "center": true,
                            "scale": true,
                            "beta_initializer": {
                                "module": "keras.initializers",
                                "class_name": "Zeros",
                                "config": {},
                                "registered_name": null
                            },
                            "gamma_initializer": {
                                "module": "keras.initializers",
                                "class_name": "Ones",
                                "config": {},
                                "registered_name": null
                            },
                            "moving_mean_initializer": {
                                "module": "keras.initializers",
                                "class_name": "Zeros",
                                "config": {},
                                "registered_name": null
                            },
                            "moving_variance_initializer": {
                                "module": "keras.initializers",
                                "class_name": "Ones",
                                "config": {},
                                "registered_name": null
                            },
                            "beta_regularizer": null,
                            "gamma_regularizer": null,
                            "beta_constraint": null,
                            "gamma_constraint": null
                        },
                        "name": "conv2_block3_1_bn",
                        "inbound_nodes": [
                            [
                                [
                                    "conv2_block3_1_conv",
                                    0,
                                    0,
                                    {}
                                ]
                            ]
                        ]
                    },
                    {
                        "class_name": "Activation",
                        "config": {
                            "name": "conv2_block3_1_relu",
                            "trainable": false,
                            "dtype": "float32",
                            "activation": "relu"
                        },
                        "name": "conv2_block3_1_relu",
                        "inbound_nodes": [
                            [
                                [
                                    "conv2_block3_1_bn",
                                    0,
                                    0,
                                    {}
                                ]
                            ]
                        ]
                    },
                    {
                        "class_name": "ZeroPadding2D",
                        "config": {
                            "name": "conv2_block3_2_pad",
                            "trainable": false,
                            "dtype": "float32",
                            "padding": [
                                [
                                    1,
                                    1
                                ],
                                [
                                    1,
                                    1
                                ]
                            ],
                            "data_format": "channels_last"
                        },
                        "name": "conv2_block3_2_pad",
                        "inbound_nodes": [
                            [
                                [
                                    "conv2_block3_1_relu",
                                    0,
                                    0,
                                    {}
                                ]
                            ]
                        ]
                    },
                    {
                        "class_name": "Conv2D",
                        "config": {
                            "name": "conv2_block3_2_conv",
                            "trainable": false,
                            "dtype": "float32",
                            "filters": 64,
                            "kernel_size": [
                                3,
                                3
                            ],
                            "strides": [
                                2,
                                2
                            ],
                            "padding": "valid",
                            "data_format": "channels_last",
                            "dilation_rate": [
                                1,
                                1
                            ],
                            "groups": 1,
                            "activation": "linear",
                            "use_bias": false,
                            "kernel_initializer": {
                                "module": "keras.initializers",
                                "class_name": "GlorotUniform",
                                "config": {
                                    "seed": null
                                },
                                "registered_name": null
                            },
                            "bias_initializer": {
                                "module": "keras.initializers",
                                "class_name": "Zeros",
                                "config": {},
                                "registered_name": null
                            },
                            "kernel_regularizer": null,
                            "bias_regularizer": null,
                            "activity_regularizer": null,
                            "kernel_constraint": null,
                            "bias_constraint": null
                        },
                        "name": "conv2_block3_2_conv",
                        "inbound_nodes": [
                            [
                                [
                                    "conv2_block3_2_pad",
                                    0,
                                    0,
                                    {}
                                ]
                            ]
                        ]
                    },
                    {
                        "class_name": "BatchNormalization",
                        "config": {
                            "name": "conv2_block3_2_bn",
                            "trainable": false,
                            "dtype": "float32",
                            "axis": [
                                3
                            ],
                            "momentum": 0.99,
                            "epsilon": 1.001e-05,
                            "center": true,
                            "scale": true,
                            "beta_initializer": {
                                "module": "keras.initializers",
                                "class_name": "Zeros",
                                "config": {},
                                "registered_name": null
                            },
                            "gamma_initializer": {
                                "module": "keras.initializers",
                                "class_name": "Ones",
                                "config": {},
                                "registered_name": null
                            },
                            "moving_mean_initializer": {
                                "module": "keras.initializers",
                                "class_name": "Zeros",
                                "config": {},
                                "registered_name": null
                            },
                            "moving_variance_initializer": {
                                "module": "keras.initializers",
                                "class_name": "Ones",
                                "config": {},
                                "registered_name": null
                            },
                            "beta_regularizer": null,
                            "gamma_regularizer": null,
                            "beta_constraint": null,
                            "gamma_constraint": null
                        },
                        "name": "conv2_block3_2_bn",
                        "inbound_nodes": [
                            [
                                [
                                    "conv2_block3_2_conv",
                                    0,
                                    0,
                                    {}
                                ]
                            ]
                        ]
                    },
                    {
                        "class_name": "Activation",
                        "config": {
                            "name": "conv2_block3_2_relu",
                            "trainable": false,
                            "dtype": "float32",
                            "activation": "relu"
                        },
                        "name": "conv2_block3_2_relu",
                        "inbound_nodes": [
                            [
                                [
                                    "conv2_block3_2_bn",
                                    0,
                                    0,
                                    {}
                                ]
                            ]
                        ]
                    },
                    {
                        "class_name": "MaxPooling2D",
                        "config": {
                            "name": "max_pooling2d",
                            "trainable": false,
                            "dtype": "float32",
                            "pool_size": [
                                1,
                                1
                            ],
                            "padding": "valid",
                            "strides": [
                                2,
                                2
                            ],
                            "data_format": "channels_last"
                        },
                        "name": "max_pooling2d",
                        "inbound_nodes": [
                            [
                                [
                                    "conv2_block2_out",
                                    0,
                                    0,
                                    {}
                                ]
                            ]
                        ]
                    },
                    {
                        "class_name": "Conv2D",
                        "config": {
                            "name": "conv2_block3_3_conv",
                            "trainable": false,
                            "dtype": "float32",
                            "filters": 256,
                            "kernel_size": [
                                1,
                                1
                            ],
                            "strides": [
                                1,
                                1
                            ],
                            "padding": "valid",
                            "data_format": "channels_last",
                            "dilation_rate": [
                                1,
                                1
                            ],
                            "groups": 1,
                            "activation": "linear",
                            "use_bias": true,
                            "kernel_initializer": {
                                "module": "keras.initializers",
                                "class_name": "GlorotUniform",
                                "config": {
                                    "seed": null
                                },
                                "registered_name": null
                            },
                            "bias_initializer": {
                                "module": "keras.initializers",
                                "class_name": "Zeros",
                                "config": {},
                                "registered_name": null
                            },
                            "kernel_regularizer": null,
                            "bias_regularizer": null,
                            "activity_regularizer": null,
                            "kernel_constraint": null,
                            "bias_constraint": null
                        },
                        "name": "conv2_block3_3_conv",
                        "inbound_nodes": [
                            [
                                [
                                    "conv2_block3_2_relu",
                                    0,
                                    0,
                                    {}
                                ]
                            ]
                        ]
                    },
                    {
                        "class_name": "Add",
                        "config": {
                            "name": "conv2_block3_out",
                            "trainable": false,
                            "dtype": "float32"
                        },
                        "name": "conv2_block3_out",
                        "inbound_nodes": [
                            [
                                [
                                    "max_pooling2d",
                                    0,
                                    0,
                                    {}
                                ],
                                [
                                    "conv2_block3_3_conv",
                                    0,
                                    0,
                                    {}
                                ]
                            ]
                        ]
                    },
                    {
                        "class_name": "BatchNormalization",
                        "config": {
                            "name": "conv3_block1_preact_bn",
                            "trainable": false,
                            "dtype": "float32",
                            "axis": [
                                3
                            ],
                            "momentum": 0.99,
                            "epsilon": 1.001e-05,
                            "center": true,
                            "scale": true,
                            "beta_initializer": {
                                "module": "keras.initializers",
                                "class_name": "Zeros",
                                "config": {},
                                "registered_name": null
                            },
                            "gamma_initializer": {
                                "module": "keras.initializers",
                                "class_name": "Ones",
                                "config": {},
                                "registered_name": null
                            },
                            "moving_mean_initializer": {
                                "module": "keras.initializers",
                                "class_name": "Zeros",
                                "config": {},
                                "registered_name": null
                            },
                            "moving_variance_initializer": {
                                "module": "keras.initializers",
                                "class_name": "Ones",
                                "config": {},
                                "registered_name": null
                            },
                            "beta_regularizer": null,
                            "gamma_regularizer": null,
                            "beta_constraint": null,
                            "gamma_constraint": null
                        },
                        "name": "conv3_block1_preact_bn",
                        "inbound_nodes": [
                            [
                                [
                                    "conv2_block3_out",
                                    0,
                                    0,
                                    {}
                                ]
                            ]
                        ]
                    },
                    {
                        "class_name": "Activation",
                        "config": {
                            "name": "conv3_block1_preact_relu",
                            "trainable": false,
                            "dtype": "float32",
                            "activation": "relu"
                        },
                        "name": "conv3_block1_preact_relu",
                        "inbound_nodes": [
                            [
                                [
                                    "conv3_block1_preact_bn",
                                    0,
                                    0,
                                    {}
                                ]
                            ]
                        ]
                    },
                    {
                        "class_name": "Conv2D",
                        "config": {
                            "name": "conv3_block1_1_conv",
                            "trainable": false,
                            "dtype": "float32",
                            "filters": 128,
                            "kernel_size": [
                                1,
                                1
                            ],
                            "strides": [
                                1,
                                1
                            ],
                            "padding": "valid",
                            "data_format": "channels_last",
                            "dilation_rate": [
                                1,
                                1
                            ],
                            "groups": 1,
                            "activation": "linear",
                            "use_bias": false,
                            "kernel_initializer": {
                                "module": "keras.initializers",
                                "class_name": "GlorotUniform",
                                "config": {
                                    "seed": null
                                },
                                "registered_name": null
                            },
                            "bias_initializer": {
                                "module": "keras.initializers",
                                "class_name": "Zeros",
                                "config": {},
                                "registered_name": null
                            },
                            "kernel_regularizer": null,
                            "bias_regularizer": null,
                            "activity_regularizer": null,
                            "kernel_constraint": null,
                            "bias_constraint": null
                        },
                        "name": "conv3_block1_1_conv",
                        "inbound_nodes": [
                            [
                                [
                                    "conv3_block1_preact_relu",
                                    0,
                                    0,
                                    {}
                                ]
                            ]
                        ]
                    },
                    {
                        "class_name": "BatchNormalization",
                        "config": {
                            "name": "conv3_block1_1_bn",
                            "trainable": false,
                            "dtype": "float32",
                            "axis": [
                                3
                            ],
                            "momentum": 0.99,
                            "epsilon": 1.001e-05,
                            "center": true,
                            "scale": true,
                            "beta_initializer": {
                                "module": "keras.initializers",
                                "class_name": "Zeros",
                                "config": {},
                                "registered_name": null
                            },
                            "gamma_initializer": {
                                "module": "keras.initializers",
                                "class_name": "Ones",
                                "config": {},
                                "registered_name": null
                            },
                            "moving_mean_initializer": {
                                "module": "keras.initializers",
                                "class_name": "Zeros",
                                "config": {},
                                "registered_name": null
                            },
                            "moving_variance_initializer": {
                                "module": "keras.initializers",
                                "class_name": "Ones",
                                "config": {},
                                "registered_name": null
                            },
                            "beta_regularizer": null,
                            "gamma_regularizer": null,
                            "beta_constraint": null,
                            "gamma_constraint": null
                        },
                        "name": "conv3_block1_1_bn",
                        "inbound_nodes": [
                            [
                                [
                                    "conv3_block1_1_conv",
                                    0,
                                    0,
                                    {}
                                ]
                            ]
                        ]
                    },
                    {
                        "class_name": "Activation",
                        "config": {
                            "name": "conv3_block1_1_relu",
                            "trainable": false,
                            "dtype": "float32",
                            "activation": "relu"
                        },
                        "name": "conv3_block1_1_relu",
                        "inbound_nodes": [
                            [
                                [
                                    "conv3_block1_1_bn",
                                    0,
                                    0,
                                    {}
                                ]
                            ]
                        ]
                    },
                    {
                        "class_name": "ZeroPadding2D",
                        "config": {
                            "name": "conv3_block1_2_pad",
                            "trainable": false,
                            "dtype": "float32",
                            "padding": [
                                [
                                    1,
                                    1
                                ],
                                [
                                    1,
                                    1
                                ]
                            ],
                            "data_format": "channels_last"
                        },
                        "name": "conv3_block1_2_pad",
                        "inbound_nodes": [
                            [
                                [
                                    "conv3_block1_1_relu",
                                    0,
                                    0,
                                    {}
                                ]
                            ]
                        ]
                    },
                    {
                        "class_name": "Conv2D",
                        "config": {
                            "name": "conv3_block1_2_conv",
                            "trainable": false,
                            "dtype": "float32",
                            "filters": 128,
                            "kernel_size": [
                                3,
                                3
                            ],
                            "strides": [
                                1,
                                1
                            ],
                            "padding": "valid",
                            "data_format": "channels_last",
                            "dilation_rate": [
                                1,
                                1
                            ],
                            "groups": 1,
                            "activation": "linear",
                            "use_bias": false,
                            "kernel_initializer": {
                                "module": "keras.initializers",
                                "class_name": "GlorotUniform",
                                "config": {
                                    "seed": null
                                },
                                "registered_name": null
                            },
                            "bias_initializer": {
                                "module": "keras.initializers",
                                "class_name": "Zeros",
                                "config": {},
                                "registered_name": null
                            },
                            "kernel_regularizer": null,
                            "bias_regularizer": null,
                            "activity_regularizer": null,
                            "kernel_constraint": null,
                            "bias_constraint": null
                        },
                        "name": "conv3_block1_2_conv",
                        "inbound_nodes": [
                            [
                                [
                                    "conv3_block1_2_pad",
                                    0,
                                    0,
                                    {}
                                ]
                            ]
                        ]
                    },
                    {
                        "class_name": "BatchNormalization",
                        "config": {
                            "name": "conv3_block1_2_bn",
                            "trainable": false,
                            "dtype": "float32",
                            "axis": [
                                3
                            ],
                            "momentum": 0.99,
                            "epsilon": 1.001e-05,
                            "center": true,
                            "scale": true,
                            "beta_initializer": {
                                "module": "keras.initializers",
                                "class_name": "Zeros",
                                "config": {},
                                "registered_name": null
                            },
                            "gamma_initializer": {
                                "module": "keras.initializers",
                                "class_name": "Ones",
                                "config": {},
                                "registered_name": null
                            },
                            "moving_mean_initializer": {
                                "module": "keras.initializers",
                                "class_name": "Zeros",
                                "config": {},
                                "registered_name": null
                            },
                            "moving_variance_initializer": {
                                "module": "keras.initializers",
                                "class_name": "Ones",
                                "config": {},
                                "registered_name": null
                            },
                            "beta_regularizer": null,
                            "gamma_regularizer": null,
                            "beta_constraint": null,
                            "gamma_constraint": null
                        },
                        "name": "conv3_block1_2_bn",
                        "inbound_nodes": [
                            [
                                [
                                    "conv3_block1_2_conv",
                                    0,
                                    0,
                                    {}
                                ]
                            ]
                        ]
                    },
                    {
                        "class_name": "Activation",
                        "config": {
                            "name": "conv3_block1_2_relu",
                            "trainable": false,
                            "dtype": "float32",
                            "activation": "relu"
                        },
                        "name": "conv3_block1_2_relu",
                        "inbound_nodes": [
                            [
                                [
                                    "conv3_block1_2_bn",
                                    0,
                                    0,
                                    {}
                                ]
                            ]
                        ]
                    },
                    {
                        "class_name": "Conv2D",
                        "config": {
                            "name": "conv3_block1_0_conv",
                            "trainable": false,
                            "dtype": "float32",
                            "filters": 512,
                            "kernel_size": [
                                1,
                                1
                            ],
                            "strides": [
                                1,
                                1
                            ],
                            "padding": "valid",
                            "data_format": "channels_last",
                            "dilation_rate": [
                                1,
                                1
                            ],
                            "groups": 1,
                            "activation": "linear",
                            "use_bias": true,
                            "kernel_initializer": {
                                "module": "keras.initializers",
                                "class_name": "GlorotUniform",
                                "config": {
                                    "seed": null
                                },
                                "registered_name": null
                            },
                            "bias_initializer": {
                                "module": "keras.initializers",
                                "class_name": "Zeros",
                                "config": {},
                                "registered_name": null
                            },
                            "kernel_regularizer": null,
                            "bias_regularizer": null,
                            "activity_regularizer": null,
                            "kernel_constraint": null,
                            "bias_constraint": null
                        },
                        "name": "conv3_block1_0_conv",
                        "inbound_nodes": [
                            [
                                [
                                    "conv3_block1_preact_relu",
                                    0,
                                    0,
                                    {}
                                ]
                            ]
                        ]
                    },
                    {
                        "class_name": "Conv2D",
                        "config": {
                            "name": "conv3_block1_3_conv",
                            "trainable": false,
                            "dtype": "float32",
                            "filters": 512,
                            "kernel_size": [
                                1,
                                1
                            ],
                            "strides": [
                                1,
                                1
                            ],
                            "padding": "valid",
                            "data_format": "channels_last",
                            "dilation_rate": [
                                1,
                                1
                            ],
                            "groups": 1,
                            "activation": "linear",
                            "use_bias": true,
                            "kernel_initializer": {
                                "module": "keras.initializers",
                                "class_name": "GlorotUniform",
                                "config": {
                                    "seed": null
                                },
                                "registered_name": null
                            },
                            "bias_initializer": {
                                "module": "keras.initializers",
                                "class_name": "Zeros",
                                "config": {},
                                "registered_name": null
                            },
                            "kernel_regularizer": null,
                            "bias_regularizer": null,
                            "activity_regularizer": null,
                            "kernel_constraint": null,
                            "bias_constraint": null
                        },
                        "name": "conv3_block1_3_conv",
                        "inbound_nodes": [
                            [
                                [
                                    "conv3_block1_2_relu",
                                    0,
                                    0,
                                    {}
                                ]
                            ]
                        ]
                    },
                    {
                        "class_name": "Add",
                        "config": {
                            "name": "conv3_block1_out",
                            "trainable": false,
                            "dtype": "float32"
                        },
                        "name": "conv3_block1_out",
                        "inbound_nodes": [
                            [
                                [
                                    "conv3_block1_0_conv",
                                    0,
                                    0,
                                    {}
                                ],
                                [
                                    "conv3_block1_3_conv",
                                    0,
                                    0,
                                    {}
                                ]
                            ]
                        ]
                    },
                    {
                        "class_name": "BatchNormalization",
                        "config": {
                            "name": "conv3_block2_preact_bn",
                            "trainable": false,
                            "dtype": "float32",
                            "axis": [
                                3
                            ],
                            "momentum": 0.99,
                            "epsilon": 1.001e-05,
                            "center": true,
                            "scale": true,
                            "beta_initializer": {
                                "module": "keras.initializers",
                                "class_name": "Zeros",
                                "config": {},
                                "registered_name": null
                            },
                            "gamma_initializer": {
                                "module": "keras.initializers",
                                "class_name": "Ones",
                                "config": {},
                                "registered_name": null
                            },
                            "moving_mean_initializer": {
                                "module": "keras.initializers",
                                "class_name": "Zeros",
                                "config": {},
                                "registered_name": null
                            },
                            "moving_variance_initializer": {
                                "module": "keras.initializers",
                                "class_name": "Ones",
                                "config": {},
                                "registered_name": null
                            },
                            "beta_regularizer": null,
                            "gamma_regularizer": null,
                            "beta_constraint": null,
                            "gamma_constraint": null
                        },
                        "name": "conv3_block2_preact_bn",
                        "inbound_nodes": [
                            [
                                [
                                    "conv3_block1_out",
                                    0,
                                    0,
                                    {}
                                ]
                            ]
                        ]
                    },
                    {
                        "class_name": "Activation",
                        "config": {
                            "name": "conv3_block2_preact_relu",
                            "trainable": false,
                            "dtype": "float32",
                            "activation": "relu"
                        },
                        "name": "conv3_block2_preact_relu",
                        "inbound_nodes": [
                            [
                                [
                                    "conv3_block2_preact_bn",
                                    0,
                                    0,
                                    {}
                                ]
                            ]
                        ]
                    },
                    {
                        "class_name": "Conv2D",
                        "config": {
                            "name": "conv3_block2_1_conv",
                            "trainable": false,
                            "dtype": "float32",
                            "filters": 128,
                            "kernel_size": [
                                1,
                                1
                            ],
                            "strides": [
                                1,
                                1
                            ],
                            "padding": "valid",
                            "data_format": "channels_last",
                            "dilation_rate": [
                                1,
                                1
                            ],
                            "groups": 1,
                            "activation": "linear",
                            "use_bias": false,
                            "kernel_initializer": {
                                "module": "keras.initializers",
                                "class_name": "GlorotUniform",
                                "config": {
                                    "seed": null
                                },
                                "registered_name": null
                            },
                            "bias_initializer": {
                                "module": "keras.initializers",
                                "class_name": "Zeros",
                                "config": {},
                                "registered_name": null
                            },
                            "kernel_regularizer": null,
                            "bias_regularizer": null,
                            "activity_regularizer": null,
                            "kernel_constraint": null,
                            "bias_constraint": null
                        },
                        "name": "conv3_block2_1_conv",
                        "inbound_nodes": [
                            [
                                [
                                    "conv3_block2_preact_relu",
                                    0,
                                    0,
                                    {}
                                ]
                            ]
                        ]
                    },
                    {
                        "class_name": "BatchNormalization",
                        "config": {
                            "name": "conv3_block2_1_bn",
                            "trainable": false,
                            "dtype": "float32",
                            "axis": [
                                3
                            ],
                            "momentum": 0.99,
                            "epsilon": 1.001e-05,
                            "center": true,
                            "scale": true,
                            "beta_initializer": {
                                "module": "keras.initializers",
                                "class_name": "Zeros",
                                "config": {},
                                "registered_name": null
                            },
                            "gamma_initializer": {
                                "module": "keras.initializers",
                                "class_name": "Ones",
                                "config": {},
                                "registered_name": null
                            },
                            "moving_mean_initializer": {
                                "module": "keras.initializers",
                                "class_name": "Zeros",
                                "config": {},
                                "registered_name": null
                            },
                            "moving_variance_initializer": {
                                "module": "keras.initializers",
                                "class_name": "Ones",
                                "config": {},
                                "registered_name": null
                            },
                            "beta_regularizer": null,
                            "gamma_regularizer": null,
                            "beta_constraint": null,
                            "gamma_constraint": null
                        },
                        "name": "conv3_block2_1_bn",
                        "inbound_nodes": [
                            [
                                [
                                    "conv3_block2_1_conv",
                                    0,
                                    0,
                                    {}
                                ]
                            ]
                        ]
                    },
                    {
                        "class_name": "Activation",
                        "config": {
                            "name": "conv3_block2_1_relu",
                            "trainable": false,
                            "dtype": "float32",
                            "activation": "relu"
                        },
                        "name": "conv3_block2_1_relu",
                        "inbound_nodes": [
                            [
                                [
                                    "conv3_block2_1_bn",
                                    0,
                                    0,
                                    {}
                                ]
                            ]
                        ]
                    },
                    {
                        "class_name": "ZeroPadding2D",
                        "config": {
                            "name": "conv3_block2_2_pad",
                            "trainable": false,
                            "dtype": "float32",
                            "padding": [
                                [
                                    1,
                                    1
                                ],
                                [
                                    1,
                                    1
                                ]
                            ],
                            "data_format": "channels_last"
                        },
                        "name": "conv3_block2_2_pad",
                        "inbound_nodes": [
                            [
                                [
                                    "conv3_block2_1_relu",
                                    0,
                                    0,
                                    {}
                                ]
                            ]
                        ]
                    },
                    {
                        "class_name": "Conv2D",
                        "config": {
                            "name": "conv3_block2_2_conv",
                            "trainable": false,
                            "dtype": "float32",
                            "filters": 128,
                            "kernel_size": [
                                3,
                                3
                            ],
                            "strides": [
                                1,
                                1
                            ],
                            "padding": "valid",
                            "data_format": "channels_last",
                            "dilation_rate": [
                                1,
                                1
                            ],
                            "groups": 1,
                            "activation": "linear",
                            "use_bias": false,
                            "kernel_initializer": {
                                "module": "keras.initializers",
                                "class_name": "GlorotUniform",
                                "config": {
                                    "seed": null
                                },
                                "registered_name": null
                            },
                            "bias_initializer": {
                                "module": "keras.initializers",
                                "class_name": "Zeros",
                                "config": {},
                                "registered_name": null
                            },
                            "kernel_regularizer": null,
                            "bias_regularizer": null,
                            "activity_regularizer": null,
                            "kernel_constraint": null,
                            "bias_constraint": null
                        },
                        "name": "conv3_block2_2_conv",
                        "inbound_nodes": [
                            [
                                [
                                    "conv3_block2_2_pad",
                                    0,
                                    0,
                                    {}
                                ]
                            ]
                        ]
                    },
                    {
                        "class_name": "BatchNormalization",
                        "config": {
                            "name": "conv3_block2_2_bn",
                            "trainable": false,
                            "dtype": "float32",
                            "axis": [
                                3
                            ],
                            "momentum": 0.99,
                            "epsilon": 1.001e-05,
                            "center": true,
                            "scale": true,
                            "beta_initializer": {
                                "module": "keras.initializers",
                                "class_name": "Zeros",
                                "config": {},
                                "registered_name": null
                            },
                            "gamma_initializer": {
                                "module": "keras.initializers",
                                "class_name": "Ones",
                                "config": {},
                                "registered_name": null
                            },
                            "moving_mean_initializer": {
                                "module": "keras.initializers",
                                "class_name": "Zeros",
                                "config": {},
                                "registered_name": null
                            },
                            "moving_variance_initializer": {
                                "module": "keras.initializers",
                                "class_name": "Ones",
                                "config": {},
                                "registered_name": null
                            },
                            "beta_regularizer": null,
                            "gamma_regularizer": null,
                            "beta_constraint": null,
                            "gamma_constraint": null
                        },
                        "name": "conv3_block2_2_bn",
                        "inbound_nodes": [
                            [
                                [
                                    "conv3_block2_2_conv",
                                    0,
                                    0,
                                    {}
                                ]
                            ]
                        ]
                    },
                    {
                        "class_name": "Activation",
                        "config": {
                            "name": "conv3_block2_2_relu",
                            "trainable": false,
                            "dtype": "float32",
                            "activation": "relu"
                        },
                        "name": "conv3_block2_2_relu",
                        "inbound_nodes": [
                            [
                                [
                                    "conv3_block2_2_bn",
                                    0,
                                    0,
                                    {}
                                ]
                            ]
                        ]
                    },
                    {
                        "class_name": "Conv2D",
                        "config": {
                            "name": "conv3_block2_3_conv",
                            "trainable": false,
                            "dtype": "float32",
                            "filters": 512,
                            "kernel_size": [
                                1,
                                1
                            ],
                            "strides": [
                                1,
                                1
                            ],
                            "padding": "valid",
                            "data_format": "channels_last",
                            "dilation_rate": [
                                1,
                                1
                            ],
                            "groups": 1,
                            "activation": "linear",
                            "use_bias": true,
                            "kernel_initializer": {
                                "module": "keras.initializers",
                                "class_name": "GlorotUniform",
                                "config": {
                                    "seed": null
                                },
                                "registered_name": null
                            },
                            "bias_initializer": {
                                "module": "keras.initializers",
                                "class_name": "Zeros",
                                "config": {},
                                "registered_name": null
                            },
                            "kernel_regularizer": null,
                            "bias_regularizer": null,
                            "activity_regularizer": null,
                            "kernel_constraint": null,
                            "bias_constraint": null
                        },
                        "name": "conv3_block2_3_conv",
                        "inbound_nodes": [
                            [
                                [
                                    "conv3_block2_2_relu",
                                    0,
                                    0,
                                    {}
                                ]
                            ]
                        ]
                    },
                    {
                        "class_name": "Add",
                        "config": {
                            "name": "conv3_block2_out",
                            "trainable": false,
                            "dtype": "float32"
                        },
                        "name": "conv3_block2_out",
                        "inbound_nodes": [
                            [
                                [
                                    "conv3_block1_out",
                                    0,
                                    0,
                                    {}
                                ],
                                [
                                    "conv3_block2_3_conv",
                                    0,
                                    0,
                                    {}
                                ]
                            ]
                        ]
                    },
                    {
                        "class_name": "BatchNormalization",
                        "config": {
                            "name": "conv3_block3_preact_bn",
                            "trainable": false,
                            "dtype": "float32",
                            "axis": [
                                3
                            ],
                            "momentum": 0.99,
                            "epsilon": 1.001e-05,
                            "center": true,
                            "scale": true,
                            "beta_initializer": {
                                "module": "keras.initializers",
                                "class_name": "Zeros",
                                "config": {},
                                "registered_name": null
                            },
                            "gamma_initializer": {
                                "module": "keras.initializers",
                                "class_name": "Ones",
                                "config": {},
                                "registered_name": null
                            },
                            "moving_mean_initializer": {
                                "module": "keras.initializers",
                                "class_name": "Zeros",
                                "config": {},
                                "registered_name": null
                            },
                            "moving_variance_initializer": {
                                "module": "keras.initializers",
                                "class_name": "Ones",
                                "config": {},
                                "registered_name": null
                            },
                            "beta_regularizer": null,
                            "gamma_regularizer": null,
                            "beta_constraint": null,
                            "gamma_constraint": null
                        },
                        "name": "conv3_block3_preact_bn",
                        "inbound_nodes": [
                            [
                                [
                                    "conv3_block2_out",
                                    0,
                                    0,
                                    {}
                                ]
                            ]
                        ]
                    },
                    {
                        "class_name": "Activation",
                        "config": {
                            "name": "conv3_block3_preact_relu",
                            "trainable": false,
                            "dtype": "float32",
                            "activation": "relu"
                        },
                        "name": "conv3_block3_preact_relu",
                        "inbound_nodes": [
                            [
                                [
                                    "conv3_block3_preact_bn",
                                    0,
                                    0,
                                    {}
                                ]
                            ]
                        ]
                    },
                    {
                        "class_name": "Conv2D",
                        "config": {
                            "name": "conv3_block3_1_conv",
                            "trainable": false,
                            "dtype": "float32",
                            "filters": 128,
                            "kernel_size": [
                                1,
                                1
                            ],
                            "strides": [
                                1,
                                1
                            ],
                            "padding": "valid",
                            "data_format": "channels_last",
                            "dilation_rate": [
                                1,
                                1
                            ],
                            "groups": 1,
                            "activation": "linear",
                            "use_bias": false,
                            "kernel_initializer": {
                                "module": "keras.initializers",
                                "class_name": "GlorotUniform",
                                "config": {
                                    "seed": null
                                },
                                "registered_name": null
                            },
                            "bias_initializer": {
                                "module": "keras.initializers",
                                "class_name": "Zeros",
                                "config": {},
                                "registered_name": null
                            },
                            "kernel_regularizer": null,
                            "bias_regularizer": null,
                            "activity_regularizer": null,
                            "kernel_constraint": null,
                            "bias_constraint": null
                        },
                        "name": "conv3_block3_1_conv",
                        "inbound_nodes": [
                            [
                                [
                                    "conv3_block3_preact_relu",
                                    0,
                                    0,
                                    {}
                                ]
                            ]
                        ]
                    },
                    {
                        "class_name": "BatchNormalization",
                        "config": {
                            "name": "conv3_block3_1_bn",
                            "trainable": false,
                            "dtype": "float32",
                            "axis": [
                                3
                            ],
                            "momentum": 0.99,
                            "epsilon": 1.001e-05,
                            "center": true,
                            "scale": true,
                            "beta_initializer": {
                                "module": "keras.initializers",
                                "class_name": "Zeros",
                                "config": {},
                                "registered_name": null
                            },
                            "gamma_initializer": {
                                "module": "keras.initializers",
                                "class_name": "Ones",
                                "config": {},
                                "registered_name": null
                            },
                            "moving_mean_initializer": {
                                "module": "keras.initializers",
                                "class_name": "Zeros",
                                "config": {},
                                "registered_name": null
                            },
                            "moving_variance_initializer": {
                                "module": "keras.initializers",
                                "class_name": "Ones",
                                "config": {},
                                "registered_name": null
                            },
                            "beta_regularizer": null,
                            "gamma_regularizer": null,
                            "beta_constraint": null,
                            "gamma_constraint": null
                        },
                        "name": "conv3_block3_1_bn",
                        "inbound_nodes": [
                            [
                                [
                                    "conv3_block3_1_conv",
                                    0,
                                    0,
                                    {}
                                ]
                            ]
                        ]
                    },
                    {
                        "class_name": "Activation",
                        "config": {
                            "name": "conv3_block3_1_relu",
                            "trainable": false,
                            "dtype": "float32",
                            "activation": "relu"
                        },
                        "name": "conv3_block3_1_relu",
                        "inbound_nodes": [
                            [
                                [
                                    "conv3_block3_1_bn",
                                    0,
                                    0,
                                    {}
                                ]
                            ]
                        ]
                    },
                    {
                        "class_name": "ZeroPadding2D",
                        "config": {
                            "name": "conv3_block3_2_pad",
                            "trainable": false,
                            "dtype": "float32",
                            "padding": [
                                [
                                    1,
                                    1
                                ],
                                [
                                    1,
                                    1
                                ]
                            ],
                            "data_format": "channels_last"
                        },
                        "name": "conv3_block3_2_pad",
                        "inbound_nodes": [
                            [
                                [
                                    "conv3_block3_1_relu",
                                    0,
                                    0,
                                    {}
                                ]
                            ]
                        ]
                    },
                    {
                        "class_name": "Conv2D",
                        "config": {
                            "name": "conv3_block3_2_conv",
                            "trainable": false,
                            "dtype": "float32",
                            "filters": 128,
                            "kernel_size": [
                                3,
                                3
                            ],
                            "strides": [
                                1,
                                1
                            ],
                            "padding": "valid",
                            "data_format": "channels_last",
                            "dilation_rate": [
                                1,
                                1
                            ],
                            "groups": 1,
                            "activation": "linear",
                            "use_bias": false,
                            "kernel_initializer": {
                                "module": "keras.initializers",
                                "class_name": "GlorotUniform",
                                "config": {
                                    "seed": null
                                },
                                "registered_name": null
                            },
                            "bias_initializer": {
                                "module": "keras.initializers",
                                "class_name": "Zeros",
                                "config": {},
                                "registered_name": null
                            },
                            "kernel_regularizer": null,
                            "bias_regularizer": null,
                            "activity_regularizer": null,
                            "kernel_constraint": null,
                            "bias_constraint": null
                        },
                        "name": "conv3_block3_2_conv",
                        "inbound_nodes": [
                            [
                                [
                                    "conv3_block3_2_pad",
                                    0,
                                    0,
                                    {}
                                ]
                            ]
                        ]
                    },
                    {
                        "class_name": "BatchNormalization",
                        "config": {
                            "name": "conv3_block3_2_bn",
                            "trainable": false,
                            "dtype": "float32",
                            "axis": [
                                3
                            ],
                            "momentum": 0.99,
                            "epsilon": 1.001e-05,
                            "center": true,
                            "scale": true,
                            "beta_initializer": {
                                "module": "keras.initializers",
                                "class_name": "Zeros",
                                "config": {},
                                "registered_name": null
                            },
                            "gamma_initializer": {
                                "module": "keras.initializers",
                                "class_name": "Ones",
                                "config": {},
                                "registered_name": null
                            },
                            "moving_mean_initializer": {
                                "module": "keras.initializers",
                                "class_name": "Zeros",
                                "config": {},
                                "registered_name": null
                            },
                            "moving_variance_initializer": {
                                "module": "keras.initializers",
                                "class_name": "Ones",
                                "config": {},
                                "registered_name": null
                            },
                            "beta_regularizer": null,
                            "gamma_regularizer": null,
                            "beta_constraint": null,
                            "gamma_constraint": null
                        },
                        "name": "conv3_block3_2_bn",
                        "inbound_nodes": [
                            [
                                [
                                    "conv3_block3_2_conv",
                                    0,
                                    0,
                                    {}
                                ]
                            ]
                        ]
                    },
                    {
                        "class_name": "Activation",
                        "config": {
                            "name": "conv3_block3_2_relu",
                            "trainable": false,
                            "dtype": "float32",
                            "activation": "relu"
                        },
                        "name": "conv3_block3_2_relu",
                        "inbound_nodes": [
                            [
                                [
                                    "conv3_block3_2_bn",
                                    0,
                                    0,
                                    {}
                                ]
                            ]
                        ]
                    },
                    {
                        "class_name": "Conv2D",
                        "config": {
                            "name": "conv3_block3_3_conv",
                            "trainable": false,
                            "dtype": "float32",
                            "filters": 512,
                            "kernel_size": [
                                1,
                                1
                            ],
                            "strides": [
                                1,
                                1
                            ],
                            "padding": "valid",
                            "data_format": "channels_last",
                            "dilation_rate": [
                                1,
                                1
                            ],
                            "groups": 1,
                            "activation": "linear",
                            "use_bias": true,
                            "kernel_initializer": {
                                "module": "keras.initializers",
                                "class_name": "GlorotUniform",
                                "config": {
                                    "seed": null
                                },
                                "registered_name": null
                            },
                            "bias_initializer": {
                                "module": "keras.initializers",
                                "class_name": "Zeros",
                                "config": {},
                                "registered_name": null
                            },
                            "kernel_regularizer": null,
                            "bias_regularizer": null,
                            "activity_regularizer": null,
                            "kernel_constraint": null,
                            "bias_constraint": null
                        },
                        "name": "conv3_block3_3_conv",
                        "inbound_nodes": [
                            [
                                [
                                    "conv3_block3_2_relu",
                                    0,
                                    0,
                                    {}
                                ]
                            ]
                        ]
                    },
                    {
                        "class_name": "Add",
                        "config": {
                            "name": "conv3_block3_out",
                            "trainable": false,
                            "dtype": "float32"
                        },
                        "name": "conv3_block3_out",
                        "inbound_nodes": [
                            [
                                [
                                    "conv3_block2_out",
                                    0,
                                    0,
                                    {}
                                ],
                                [
                                    "conv3_block3_3_conv",
                                    0,
                                    0,
                                    {}
                                ]
                            ]
                        ]
                    },
                    {
                        "class_name": "BatchNormalization",
                        "config": {
                            "name": "conv3_block4_preact_bn",
                            "trainable": false,
                            "dtype": "float32",
                            "axis": [
                                3
                            ],
                            "momentum": 0.99,
                            "epsilon": 1.001e-05,
                            "center": true,
                            "scale": true,
                            "beta_initializer": {
                                "module": "keras.initializers",
                                "class_name": "Zeros",
                                "config": {},
                                "registered_name": null
                            },
                            "gamma_initializer": {
                                "module": "keras.initializers",
                                "class_name": "Ones",
                                "config": {},
                                "registered_name": null
                            },
                            "moving_mean_initializer": {
                                "module": "keras.initializers",
                                "class_name": "Zeros",
                                "config": {},
                                "registered_name": null
                            },
                            "moving_variance_initializer": {
                                "module": "keras.initializers",
                                "class_name": "Ones",
                                "config": {},
                                "registered_name": null
                            },
                            "beta_regularizer": null,
                            "gamma_regularizer": null,
                            "beta_constraint": null,
                            "gamma_constraint": null
                        },
                        "name": "conv3_block4_preact_bn",
                        "inbound_nodes": [
                            [
                                [
                                    "conv3_block3_out",
                                    0,
                                    0,
                                    {}
                                ]
                            ]
                        ]
                    },
                    {
                        "class_name": "Activation",
                        "config": {
                            "name": "conv3_block4_preact_relu",
                            "trainable": false,
                            "dtype": "float32",
                            "activation": "relu"
                        },
                        "name": "conv3_block4_preact_relu",
                        "inbound_nodes": [
                            [
                                [
                                    "conv3_block4_preact_bn",
                                    0,
                                    0,
                                    {}
                                ]
                            ]
                        ]
                    },
                    {
                        "class_name": "Conv2D",
                        "config": {
                            "name": "conv3_block4_1_conv",
                            "trainable": false,
                            "dtype": "float32",
                            "filters": 128,
                            "kernel_size": [
                                1,
                                1
                            ],
                            "strides": [
                                1,
                                1
                            ],
                            "padding": "valid",
                            "data_format": "channels_last",
                            "dilation_rate": [
                                1,
                                1
                            ],
                            "groups": 1,
                            "activation": "linear",
                            "use_bias": false,
                            "kernel_initializer": {
                                "module": "keras.initializers",
                                "class_name": "GlorotUniform",
                                "config": {
                                    "seed": null
                                },
                                "registered_name": null
                            },
                            "bias_initializer": {
                                "module": "keras.initializers",
                                "class_name": "Zeros",
                                "config": {},
                                "registered_name": null
                            },
                            "kernel_regularizer": null,
                            "bias_regularizer": null,
                            "activity_regularizer": null,
                            "kernel_constraint": null,
                            "bias_constraint": null
                        },
                        "name": "conv3_block4_1_conv",
                        "inbound_nodes": [
                            [
                                [
                                    "conv3_block4_preact_relu",
                                    0,
                                    0,
                                    {}
                                ]
                            ]
                        ]
                    },
                    {
                        "class_name": "BatchNormalization",
                        "config": {
                            "name": "conv3_block4_1_bn",
                            "trainable": false,
                            "dtype": "float32",
                            "axis": [
                                3
                            ],
                            "momentum": 0.99,
                            "epsilon": 1.001e-05,
                            "center": true,
                            "scale": true,
                            "beta_initializer": {
                                "module": "keras.initializers",
                                "class_name": "Zeros",
                                "config": {},
                                "registered_name": null
                            },
                            "gamma_initializer": {
                                "module": "keras.initializers",
                                "class_name": "Ones",
                                "config": {},
                                "registered_name": null
                            },
                            "moving_mean_initializer": {
                                "module": "keras.initializers",
                                "class_name": "Zeros",
                                "config": {},
                                "registered_name": null
                            },
                            "moving_variance_initializer": {
                                "module": "keras.initializers",
                                "class_name": "Ones",
                                "config": {},
                                "registered_name": null
                            },
                            "beta_regularizer": null,
                            "gamma_regularizer": null,
                            "beta_constraint": null,
                            "gamma_constraint": null
                        },
                        "name": "conv3_block4_1_bn",
                        "inbound_nodes": [
                            [
                                [
                                    "conv3_block4_1_conv",
                                    0,
                                    0,
                                    {}
                                ]
                            ]
                        ]
                    },
                    {
                        "class_name": "Activation",
                        "config": {
                            "name": "conv3_block4_1_relu",
                            "trainable": false,
                            "dtype": "float32",
                            "activation": "relu"
                        },
                        "name": "conv3_block4_1_relu",
                        "inbound_nodes": [
                            [
                                [
                                    "conv3_block4_1_bn",
                                    0,
                                    0,
                                    {}
                                ]
                            ]
                        ]
                    },
                    {
                        "class_name": "ZeroPadding2D",
                        "config": {
                            "name": "conv3_block4_2_pad",
                            "trainable": false,
                            "dtype": "float32",
                            "padding": [
                                [
                                    1,
                                    1
                                ],
                                [
                                    1,
                                    1
                                ]
                            ],
                            "data_format": "channels_last"
                        },
                        "name": "conv3_block4_2_pad",
                        "inbound_nodes": [
                            [
                                [
                                    "conv3_block4_1_relu",
                                    0,
                                    0,
                                    {}
                                ]
                            ]
                        ]
                    },
                    {
                        "class_name": "Conv2D",
                        "config": {
                            "name": "conv3_block4_2_conv",
                            "trainable": false,
                            "dtype": "float32",
                            "filters": 128,
                            "kernel_size": [
                                3,
                                3
                            ],
                            "strides": [
                                2,
                                2
                            ],
                            "padding": "valid",
                            "data_format": "channels_last",
                            "dilation_rate": [
                                1,
                                1
                            ],
                            "groups": 1,
                            "activation": "linear",
                            "use_bias": false,
                            "kernel_initializer": {
                                "module": "keras.initializers",
                                "class_name": "GlorotUniform",
                                "config": {
                                    "seed": null
                                },
                                "registered_name": null
                            },
                            "bias_initializer": {
                                "module": "keras.initializers",
                                "class_name": "Zeros",
                                "config": {},
                                "registered_name": null
                            },
                            "kernel_regularizer": null,
                            "bias_regularizer": null,
                            "activity_regularizer": null,
                            "kernel_constraint": null,
                            "bias_constraint": null
                        },
                        "name": "conv3_block4_2_conv",
                        "inbound_nodes": [
                            [
                                [
                                    "conv3_block4_2_pad",
                                    0,
                                    0,
                                    {}
                                ]
                            ]
                        ]
                    },
                    {
                        "class_name": "BatchNormalization",
                        "config": {
                            "name": "conv3_block4_2_bn",
                            "trainable": false,
                            "dtype": "float32",
                            "axis": [
                                3
                            ],
                            "momentum": 0.99,
                            "epsilon": 1.001e-05,
                            "center": true,
                            "scale": true,
                            "beta_initializer": {
                                "module": "keras.initializers",
                                "class_name": "Zeros",
                                "config": {},
                                "registered_name": null
                            },
                            "gamma_initializer": {
                                "module": "keras.initializers",
                                "class_name": "Ones",
                                "config": {},
                                "registered_name": null
                            },
                            "moving_mean_initializer": {
                                "module": "keras.initializers",
                                "class_name": "Zeros",
                                "config": {},
                                "registered_name": null
                            },
                            "moving_variance_initializer": {
                                "module": "keras.initializers",
                                "class_name": "Ones",
                                "config": {},
                                "registered_name": null
                            },
                            "beta_regularizer": null,
                            "gamma_regularizer": null,
                            "beta_constraint": null,
                            "gamma_constraint": null
                        },
                        "name": "conv3_block4_2_bn",
                        "inbound_nodes": [
                            [
                                [
                                    "conv3_block4_2_conv",
                                    0,
                                    0,
                                    {}
                                ]
                            ]
                        ]
                    },
                    {
                        "class_name": "Activation",
                        "config": {
                            "name": "conv3_block4_2_relu",
                            "trainable": false,
                            "dtype": "float32",
                            "activation": "relu"
                        },
                        "name": "conv3_block4_2_relu",
                        "inbound_nodes": [
                            [
                                [
                                    "conv3_block4_2_bn",
                                    0,
                                    0,
                                    {}
                                ]
                            ]
                        ]
                    },
                    {
                        "class_name": "MaxPooling2D",
                        "config": {
                            "name": "max_pooling2d_1",
                            "trainable": false,
                            "dtype": "float32",
                            "pool_size": [
                                1,
                                1
                            ],
                            "padding": "valid",
                            "strides": [
                                2,
                                2
                            ],
                            "data_format": "channels_last"
                        },
                        "name": "max_pooling2d_1",
                        "inbound_nodes": [
                            [
                                [
                                    "conv3_block3_out",
                                    0,
                                    0,
                                    {}
                                ]
                            ]
                        ]
                    },
                    {
                        "class_name": "Conv2D",
                        "config": {
                            "name": "conv3_block4_3_conv",
                            "trainable": false,
                            "dtype": "float32",
                            "filters": 512,
                            "kernel_size": [
                                1,
                                1
                            ],
                            "strides": [
                                1,
                                1
                            ],
                            "padding": "valid",
                            "data_format": "channels_last",
                            "dilation_rate": [
                                1,
                                1
                            ],
                            "groups": 1,
                            "activation": "linear",
                            "use_bias": true,
                            "kernel_initializer": {
                                "module": "keras.initializers",
                                "class_name": "GlorotUniform",
                                "config": {
                                    "seed": null
                                },
                                "registered_name": null
                            },
                            "bias_initializer": {
                                "module": "keras.initializers",
                                "class_name": "Zeros",
                                "config": {},
                                "registered_name": null
                            },
                            "kernel_regularizer": null,
                            "bias_regularizer": null,
                            "activity_regularizer": null,
                            "kernel_constraint": null,
                            "bias_constraint": null
                        },
                        "name": "conv3_block4_3_conv",
                        "inbound_nodes": [
                            [
                                [
                                    "conv3_block4_2_relu",
                                    0,
                                    0,
                                    {}
                                ]
                            ]
                        ]
                    },
                    {
                        "class_name": "Add",
                        "config": {
                            "name": "conv3_block4_out",
                            "trainable": false,
                            "dtype": "float32"
                        },
                        "name": "conv3_block4_out",
                        "inbound_nodes": [
                            [
                                [
                                    "max_pooling2d_1",
                                    0,
                                    0,
                                    {}
                                ],
                                [
                                    "conv3_block4_3_conv",
                                    0,
                                    0,
                                    {}
                                ]
                            ]
                        ]
                    },
                    {
                        "class_name": "BatchNormalization",
                        "config": {
                            "name": "conv4_block1_preact_bn",
                            "trainable": false,
                            "dtype": "float32",
                            "axis": [
                                3
                            ],
                            "momentum": 0.99,
                            "epsilon": 1.001e-05,
                            "center": true,
                            "scale": true,
                            "beta_initializer": {
                                "module": "keras.initializers",
                                "class_name": "Zeros",
                                "config": {},
                                "registered_name": null
                            },
                            "gamma_initializer": {
                                "module": "keras.initializers",
                                "class_name": "Ones",
                                "config": {},
                                "registered_name": null
                            },
                            "moving_mean_initializer": {
…
                        128,
                        128
                    ],
                    "dtype": "float32"
                },
                {
                    "name": "conv3_block1_3_conv/kernel",
                    "shape": [
                        1,
                        1,
                        128,
                        512
                    ],
                    "dtype": "float32"
                },
                {
                    "name": "conv3_block1_3_conv/bias",
                    "shape": [
                        512
                    ],
                    "dtype": "float32"
                },
                {
                    "name": "conv3_block1_preact_bn/gamma",
                    "shape": [
                        256
                    ],
                    "dtype": "float32"
                },
                {
                    "name": "conv3_block1_preact_bn/beta",
                    "shape": [
                        256
                    ],
                    "dtype": "float32"
                },
                {
                    "name": "conv3_block1_preact_bn/moving_mean",
                    "shape": [
                        256
                    ],
                    "dtype": "float32"
                },
                {
                    "name": "conv3_block1_preact_bn/moving_variance",
                    "shape": [
                        256
                    ],
                    "dtype": "float32"
                },
                {
                    "name": "conv3_block2_1_bn/gamma",
                    "shape": [
                        128
                    ],
                    "dtype": "float32"
                },
                {
                    "name": "conv3_block2_1_bn/beta",
                    "shape": [
                        128
                    ],
                    "dtype": "float32"
                },
                {
                    "name": "conv3_block2_1_bn/moving_mean",
                    "shape": [
                        128
                    ],
                    "dtype": "float32"
                },
                {
                    "name": "conv3_block2_1_bn/moving_variance",
                    "shape": [
                        128
                    ],
                    "dtype": "float32"
                },
                {
                    "name": "conv3_block2_1_conv/kernel",
                    "shape": [
                        1,
                        1,
                        512,
                        128
                    ],
                    "dtype": "float32"
                },
                {
                    "name": "conv3_block2_2_bn/gamma",
                    "shape": [
                        128
                    ],
                    "dtype": "float32"
                },
                {
                    "name": "conv3_block2_2_bn/beta",
                    "shape": [
                        128
                    ],
                    "dtype": "float32"
                },
                {
                    "name": "conv3_block2_2_bn/moving_mean",
                    "shape": [
                        128
                    ],
                    "dtype": "float32"
                },
                {
                    "name": "conv3_block2_2_bn/moving_variance",
                    "shape": [
                        128
                    ],
                    "dtype": "float32"
                },
                {
                    "name": "conv3_block2_2_conv/kernel",
                    "shape": [
                        3,
                        3,
                        128,
                        128
                    ],
                    "dtype": "float32"
                },
                {
                    "name": "conv3_block2_3_conv/kernel",
                    "shape": [
                        1,
                        1,
                        128,
                        512
                    ],
                    "dtype": "float32"
                },
                {
                    "name": "conv3_block2_3_conv/bias",
                    "shape": [
                        512
                    ],
                    "dtype": "float32"
                },
                {
                    "name": "conv3_block2_preact_bn/gamma",
                    "shape": [
                        512
                    ],
                    "dtype": "float32"
                },
                {
                    "name": "conv3_block2_preact_bn/beta",
                    "shape": [
                        512
                    ],
                    "dtype": "float32"
                },
                {
                    "name": "conv3_block2_preact_bn/moving_mean",
                    "shape": [
                        512
                    ],
                    "dtype": "float32"
                },
                {
                    "name": "conv3_block2_preact_bn/moving_variance",
                    "shape": [
                        512
                    ],
                    "dtype": "float32"
                },
                {
                    "name": "conv3_block3_1_bn/gamma",
                    "shape": [
                        128
                    ],
                    "dtype": "float32"
                },
                {
                    "name": "conv3_block3_1_bn/beta",
                    "shape": [
                        128
                    ],
                    "dtype": "float32"
                },
                {
                    "name": "conv3_block3_1_bn/moving_mean",
                    "shape": [
                        128
                    ],
                    "dtype": "float32"
                },
                {
                    "name": "conv3_block3_1_bn/moving_variance",
                    "shape": [
                        128
                    ],
                    "dtype": "float32"
                },
                {
                    "name": "conv3_block3_1_conv/kernel",
                    "shape": [
                        1,
                        1,
                        512,
                        128
                    ],
                    "dtype": "float32"
                },
                {
                    "name": "conv3_block3_2_bn/gamma",
                    "shape": [
                        128
                    ],
                    "dtype": "float32"
                },
                {
                    "name": "conv3_block3_2_bn/beta",
                    "shape": [
                        128
                    ],
                    "dtype": "float32"
                },
                {
                    "name": "conv3_block3_2_bn/moving_mean",
                    "shape": [
                        128
                    ],
                    "dtype": "float32"
                },
                {
                    "name": "conv3_block3_2_bn/moving_variance",
                    "shape": [
                        128
                    ],
                    "dtype": "float32"
                },
                {
                    "name": "conv3_block3_2_conv/kernel",
                    "shape": [
                        3,
                        3,
                        128,
                        128
                    ],
                    "dtype": "float32"
                },
                {
                    "name": "conv3_block3_3_conv/kernel",
                    "shape": [
                        1,
                        1,
                        128,
                        512
                    ],
                    "dtype": "float32"
                },
                {
                    "name": "conv3_block3_3_conv/bias",
                    "shape": [
                        512
                    ],
                    "dtype": "float32"
                },
                {
                    "name": "conv3_block3_preact_bn/gamma",
                    "shape": [
                        512
                    ],
                    "dtype": "float32"
                },
                {
                    "name": "conv3_block3_preact_bn/beta",
                    "shape": [
                        512
                    ],
                    "dtype": "float32"
                },
                {
                    "name": "conv3_block3_preact_bn/moving_mean",
                    "shape": [
                        512
                    ],
                    "dtype": "float32"
                },
                {
                    "name": "conv3_block3_preact_bn/moving_variance",
                    "shape": [
                        512
                    ],
                    "dtype": "float32"
                },
                {
                    "name": "conv3_block4_1_bn/gamma",
                    "shape": [
                        128
                    ],
                    "dtype": "float32"
                },
                {
                    "name": "conv3_block4_1_bn/beta",
                    "shape": [
                        128
                    ],
                    "dtype": "float32"
                },
                {
                    "name": "conv3_block4_1_bn/moving_mean",
                    "shape": [
                        128
                    ],
                    "dtype": "float32"
                },
                {
                    "name": "conv3_block4_1_bn/moving_variance",
                    "shape": [
                        128
                    ],
                    "dtype": "float32"
                },
                {
                    "name": "conv3_block4_1_conv/kernel",
                    "shape": [
                        1,
                        1,
                        512,
                        128
                    ],
                    "dtype": "float32"
                },
                {
                    "name": "conv3_block4_2_bn/gamma",
                    "shape": [
                        128
                    ],
                    "dtype": "float32"
                },
                {
                    "name": "conv3_block4_2_bn/beta",
                    "shape": [
                        128
                    ],
                    "dtype": "float32"
                },
                {
                    "name": "conv3_block4_2_bn/moving_mean",
                    "shape": [
                        128
                    ],
                    "dtype": "float32"
                },
                {
                    "name": "conv3_block4_2_bn/moving_variance",
                    "shape": [
                        128
                    ],
                    "dtype": "float32"
                },
                {
                    "name": "conv3_block4_2_conv/kernel",
                    "shape": [
                        3,
                        3,
                        128,
                        128
                    ],
                    "dtype": "float32"
                },
                {
                    "name": "conv3_block4_3_conv/kernel",
                    "shape": [
                        1,
                        1,
                        128,
                        512
                    ],
                    "dtype": "float32"
                },
                {
                    "name": "conv3_block4_3_conv/bias",
                    "shape": [
                        512
                    ],
                    "dtype": "float32"
                },
                {
                    "name": "conv3_block4_preact_bn/gamma",
                    "shape": [
                        512
                    ],
                    "dtype": "float32"
                },
                {
                    "name": "conv3_block4_preact_bn/beta",
                    "shape": [
                        512
                    ],
                    "dtype": "float32"
                },
                {
                    "name": "conv3_block4_preact_bn/moving_mean",
                    "shape": [
                        512
                    ],
                    "dtype": "float32"
                },
                {
                    "name": "conv3_block4_preact_bn/moving_variance",
                    "shape": [
                        512
                    ],
                    "dtype": "float32"
                },
                {
                    "name": "conv4_block1_0_conv/kernel",
                    "shape": [
                        1,
                        1,
                        512,
                        1024
                    ],
                    "dtype": "float32"
                },
                {
                    "name": "conv4_block1_0_conv/bias",
                    "shape": [
                        1024
                    ],
                    "dtype": "float32"
                },
                {
                    "name": "conv4_block1_1_bn/gamma",
                    "shape": [
                        256
                    ],
                    "dtype": "float32"
                },
                {
                    "name": "conv4_block1_1_bn/beta",
                    "shape": [
                        256
                    ],
                    "dtype": "float32"
                },
                {
                    "name": "conv4_block1_1_bn/moving_mean",
                    "shape": [
                        256
                    ],
                    "dtype": "float32"
                },
                {
                    "name": "conv4_block1_1_bn/moving_variance",
                    "shape": [
                        256
                    ],
                    "dtype": "float32"
                },
                {
                    "name": "conv4_block1_1_conv/kernel",
                    "shape": [
                        1,
                        1,
                        512,
                        256
                    ],
                    "dtype": "float32"
                },
                {
                    "name": "conv4_block1_2_bn/gamma",
                    "shape": [
                        256
                    ],
                    "dtype": "float32"
                },
                {
                    "name": "conv4_block1_2_bn/beta",
                    "shape": [
                        256
                    ],
                    "dtype": "float32"
                },
                {
                    "name": "conv4_block1_2_bn/moving_mean",
                    "shape": [
                        256
                    ],
                    "dtype": "float32"
                },
                {
                    "name": "conv4_block1_2_bn/moving_variance",
                    "shape": [
                        256
                    ],
                    "dtype": "float32"
                },
                {
                    "name": "conv4_block1_2_conv/kernel",
                    "shape": [
                        3,
                        3,
                        256,
                        256
                    ],
                    "dtype": "float32"
                },
                {
                    "name": "conv4_block1_3_conv/kernel",
                    "shape": [
                        1,
                        1,
                        256,
                        1024
                    ],
                    "dtype": "float32"
                },
                {
                    "name": "conv4_block1_3_conv/bias",
                    "shape": [
                        1024
                    ],
                    "dtype": "float32"
                },
                {
                    "name": "conv4_block1_preact_bn/gamma",
                    "shape": [
                        512
                    ],
                    "dtype": "float32"
                },
                {
                    "name": "conv4_block1_preact_bn/beta",
                    "shape": [
                        512
                    ],
                    "dtype": "float32"
                },
                {
                    "name": "conv4_block1_preact_bn/moving_mean",
                    "shape": [
                        512
                    ],
                    "dtype": "float32"
                },
                {
                    "name": "conv4_block1_preact_bn/moving_variance",
                    "shape": [
                        512
                    ],
                    "dtype": "float32"
                },
                {
                    "name": "conv4_block2_1_bn/gamma",
                    "shape": [
                        256
                    ],
                    "dtype": "float32"
                },
                {
                    "name": "conv4_block2_1_bn/beta",
                    "shape": [
                        256
                    ],
                    "dtype": "float32"
                },
                {
                    "name": "conv4_block2_1_bn/moving_mean",
                    "shape": [
                        256
                    ],
                    "dtype": "float32"
                },
                {
                    "name": "conv4_block2_1_bn/moving_variance",
                    "shape": [
                        256
                    ],
                    "dtype": "float32"
                },
                {
                    "name": "conv4_block2_1_conv/kernel",
                    "shape": [
                        1,
                        1,
                        1024,
                        256
                    ],
                    "dtype": "float32"
                },
                {
                    "name": "conv4_block2_2_bn/gamma",
                    "shape": [
                        256
                    ],
                    "dtype": "float32"
                },
                {
                    "name": "conv4_block2_2_bn/beta",
                    "shape": [
                        256
                    ],
                    "dtype": "float32"
                },
                {
                    "name": "conv4_block2_2_bn/moving_mean",
                    "shape": [
                        256
                    ],
                    "dtype": "float32"
                },
                {
                    "name": "conv4_block2_2_bn/moving_variance",
                    "shape": [
                        256
                    ],
                    "dtype": "float32"
                },
                {
                    "name": "conv4_block2_2_conv/kernel",
                    "shape": [
                        3,
                        3,
                        256,
                        256
                    ],
                    "dtype": "float32"
                },
                {
                    "name": "conv4_block2_3_conv/kernel",
                    "shape": [
                        1,
                        1,
                        256,
                        1024
                    ],
                    "dtype": "float32"
                },
                {
                    "name": "conv4_block2_3_conv/bias",
                    "shape": [
                        1024
                    ],
                    "dtype": "float32"
                },
                {
                    "name": "conv4_block2_preact_bn/gamma",
                    "shape": [
                        1024
                    ],
                    "dtype": "float32"
                },
                {
                    "name": "conv4_block2_preact_bn/beta",
                    "shape": [
                        1024
                    ],
                    "dtype": "float32"
                },
                {
                    "name": "conv4_block2_preact_bn/moving_mean",
                    "shape": [
                        1024
                    ],
                    "dtype": "float32"
                },
                {
                    "name": "conv4_block2_preact_bn/moving_variance",
                    "shape": [
                        1024
                    ],
                    "dtype": "float32"
                },
                {
                    "name": "conv4_block3_1_bn/gamma",
                    "shape": [
                        256
                    ],
                    "dtype": "float32"
                },
                {
                    "name": "conv4_block3_1_bn/beta",
                    "shape": [
                        256
                    ],
                    "dtype": "float32"
                },
                {
                    "name": "conv4_block3_1_bn/moving_mean",
                    "shape": [
                        256
                    ],
                    "dtype": "float32"
                },
                {
                    "name": "conv4_block3_1_bn/moving_variance",
                    "shape": [
                        256
                    ],
                    "dtype": "float32"
                },
                {
                    "name": "conv4_block3_1_conv/kernel",
                    "shape": [
                        1,
                        1,
                        1024,
                        256
                    ],
                    "dtype": "float32"
                },
                {
                    "name": "conv4_block3_2_bn/gamma",
                    "shape": [
                        256
                    ],
                    "dtype": "float32"
                },
                {
                    "name": "conv4_block3_2_bn/beta",
                    "shape": [
                        256
                    ],
                    "dtype": "float32"
                },
                {
                    "name": "conv4_block3_2_bn/moving_mean",
                    "shape": [
                        256
                    ],
                    "dtype": "float32"
                },
                {
                    "name": "conv4_block3_2_bn/moving_variance",
                    "shape": [
                        256
                    ],
                    "dtype": "float32"
                },
                {
                    "name": "conv4_block3_2_conv/kernel",
                    "shape": [
                        3,
                        3,
                        256,
                        256
                    ],
                    "dtype": "float32"
                },
                {
                    "name": "conv4_block3_3_conv/kernel",
                    "shape": [
                        1,
                        1,
                        256,
                        1024
                    ],
                    "dtype": "float32"
                },
                {
                    "name": "conv4_block3_3_conv/bias",
                    "shape": [
                        1024
                    ],
                    "dtype": "float32"
                },
                {
                    "name": "conv4_block3_preact_bn/gamma",
                    "shape": [
                        1024
                    ],
                    "dtype": "float32"
                },
                {
                    "name": "conv4_block3_preact_bn/beta",
                    "shape": [
                        1024
                    ],
                    "dtype": "float32"
                },
                {
                    "name": "conv4_block3_preact_bn/moving_mean",
                    "shape": [
                        1024
                    ],
                    "dtype": "float32"
                },
                {
                    "name": "conv4_block3_preact_bn/moving_variance",
                    "shape": [
                        1024
                    ],
                    "dtype": "float32"
                },
                {
                    "name": "conv4_block4_1_bn/gamma",
                    "shape": [
                        256
                    ],
                    "dtype": "float32"
                },
                {
                    "name": "conv4_block4_1_bn/beta",
                    "shape": [
                        256
                    ],
                    "dtype": "float32"
                },
                {
                    "name": "conv4_block4_1_bn/moving_mean",
                    "shape": [
                        256
                    ],
                    "dtype": "float32"
                },
                {
                    "name": "conv4_block4_1_bn/moving_variance",
                    "shape": [
                        256
                    ],
                    "dtype": "float32"
                },
                {
                    "name": "conv4_block4_1_conv/kernel",
                    "shape": [
                        1,
                        1,
                        1024,
                        256
                    ],
                    "dtype": "float32"
                },
                {
                    "name": "conv4_block4_2_bn/gamma",
                    "shape": [
                        256
                    ],
                    "dtype": "float32"
                },
                {
                    "name": "conv4_block4_2_bn/beta",
                    "shape": [
                        256
                    ],
                    "dtype": "float32"
                },
                {
                    "name": "conv4_block4_2_bn/moving_mean",
                    "shape": [
                        256
                    ],
                    "dtype": "float32"
                },
                {
                    "name": "conv4_block4_2_bn/moving_variance",
                    "shape": [
                        256
                    ],
                    "dtype": "float32"
                },
                {
                    "name": "conv4_block4_2_conv/kernel",
                    "shape": [
                        3,
                        3,
                        256,
                        256
                    ],
                    "dtype": "float32"
                },
                {
                    "name": "conv4_block4_3_conv/kernel",
                    "shape": [
                        1,
                        1,
                        256,
                        1024
                    ],
                    "dtype": "float32"
                },
                {
                    "name": "conv4_block4_3_conv/bias",
                    "shape": [
                        1024
                    ],
                    "dtype": "float32"
                },
                {
                    "name": "conv4_block4_preact_bn/gamma",
                    "shape": [
                        1024
                    ],
                    "dtype": "float32"
                },
                {
                    "name": "conv4_block4_preact_bn/beta",
                    "shape": [
                        1024
                    ],
                    "dtype": "float32"
                },
                {
                    "name": "conv4_block4_preact_bn/moving_mean",
                    "shape": [
                        1024
                    ],
                    "dtype": "float32"
                },
                {
                    "name": "conv4_block4_preact_bn/moving_variance",
                    "shape": [
                        1024
                    ],
                    "dtype": "float32"
                },
                {
                    "name": "conv4_block5_1_bn/gamma",
                    "shape": [
                        256
                    ],
                    "dtype": "float32"
                },
                {
                    "name": "conv4_block5_1_bn/beta",
                    "shape": [
                        256
                    ],
                    "dtype": "float32"
                },
                {
                    "name": "conv4_block5_1_bn/moving_mean",
                    "shape": [
                        256
                    ],
                    "dtype": "float32"
                },
                {
                    "name": "conv4_block5_1_bn/moving_variance",
                    "shape": [
                        256
                    ],
                    "dtype": "float32"
                },
                {
                    "name": "conv4_block5_1_conv/kernel",
                    "shape": [
                        1,
                        1,
                        1024,
                        256
                    ],
                    "dtype": "float32"
                },
                {
                    "name": "conv4_block5_2_bn/gamma",
                    "shape": [
                        256
                    ],
                    "dtype": "float32"
                },
                {
                    "name": "conv4_block5_2_bn/beta",
                    "shape": [
                        256
                    ],
                    "dtype": "float32"
                },
                {
                    "name": "conv4_block5_2_bn/moving_mean",
                    "shape": [
                        256
                    ],
                    "dtype": "float32"
                },
                {
                    "name": "conv4_block5_2_bn/moving_variance",
                    "shape": [
                        256
                    ],
                    "dtype": "float32"
                },
                {
                    "name": "conv4_block5_2_conv/kernel",
                    "shape": [
                        3,
                        3,
                        256,
                        256
                    ],
                    "dtype": "float32"
                },
                {
                    "name": "conv4_block5_3_conv/kernel",
                    "shape": [
                        1,
                        1,
                        256,
                        1024
                    ],
                    "dtype": "float32"
                },
                {
                    "name": "conv4_block5_3_conv/bias",
                    "shape": [
                        1024
                    ],
                    "dtype": "float32"
                },
                {
                    "name": "conv4_block5_preact_bn/gamma",
                    "shape": [
                        1024
                    ],
                    "dtype": "float32"
                },
                {
                    "name": "conv4_block5_preact_bn/beta",
                    "shape": [
                        1024
                    ],
                    "dtype": "float32"
                },
                {
                    "name": "conv4_block5_preact_bn/moving_mean",
                    "shape": [
                        1024
                    ],
                    "dtype": "float32"
                },
                {
                    "name": "conv4_block5_preact_bn/moving_variance",
                    "shape": [
                        1024
                    ],
                    "dtype": "float32"
                },
                {
                    "name": "conv4_block6_1_bn/gamma",
                    "shape": [
                        256
                    ],
                    "dtype": "float32"
                },
                {
                    "name": "conv4_block6_1_bn/beta",
                    "shape": [
                        256
                    ],
                    "dtype": "float32"
                },
                {
                    "name": "conv4_block6_1_bn/moving_mean",
                    "shape": [
                        256
                    ],
                    "dtype": "float32"
                },
                {
                    "name": "conv4_block6_1_bn/moving_variance",
                    "shape": [
                        256
                    ],
                    "dtype": "float32"
                },
                {
                    "name": "conv4_block6_1_conv/kernel",
                    "shape": [
                        1,
                        1,
                        1024,
                        256
                    ],
                    "dtype": "float32"
                },
                {
                    "name": "conv4_block6_2_bn/gamma",
                    "shape": [
                        256
                    ],
                    "dtype": "float32"
                },
                {
                    "name": "conv4_block6_2_bn/beta",
                    "shape": [
                        256
                    ],
                    "dtype": "float32"
                },
                {
                    "name": "conv4_block6_2_bn/moving_mean",
                    "shape": [
                        256
                    ],
                    "dtype": "float32"
                },
                {
                    "name": "conv4_block6_2_bn/moving_variance",
                    "shape": [
                        256
                    ],
                    "dtype": "float32"
                },
                {
                    "name": "conv4_block6_2_conv/kernel",
                    "shape": [
                        3,
                        3,
                        256,
                        256
                    ],
                    "dtype": "float32"
                },
                {
                    "name": "conv4_block6_3_conv/kernel",
                    "shape": [
                        1,
                        1,
                        256,
                        1024
                    ],
                    "dtype": "float32"
                },
                {
                    "name": "conv4_block6_3_conv/bias",
                    "shape": [
                        1024
                    ],
                    "dtype": "float32"
                },
                {
                    "name": "conv4_block6_preact_bn/gamma",
                    "shape": [
                        1024
                    ],
                    "dtype": "float32"
                },
                {
                    "name": "conv4_block6_preact_bn/beta",
                    "shape": [
                        1024
                    ],
                    "dtype": "float32"
                },
                {
                    "name": "conv4_block6_preact_bn/moving_mean",
                    "shape": [
                        1024
                    ],
                    "dtype": "float32"
                },
                {
                    "name": "conv4_block6_preact_bn/moving_variance",
                    "shape": [
                        1024
                    ],
                    "dtype": "float32"
                },
                {
                    "name": "conv5_block1_0_conv/kernel",
                    "shape": [
                        1,
                        1,
                        1024,
                        2048
                    ],
                    "dtype": "float32"
                },
                {
                    "name": "conv5_block1_0_conv/bias",
                    "shape": [
                        2048
                    ],
                    "dtype": "float32"
                },
                {
                    "name": "conv5_block1_1_bn/gamma",
                    "shape": [
                        512
                    ],
                    "dtype": "float32"
                },
                {
                    "name": "conv5_block1_1_bn/beta",
                    "shape": [
                        512
                    ],
                    "dtype": "float32"
                },
                {
                    "name": "conv5_block1_1_bn/moving_mean",
                    "shape": [
                        512
                    ],
                    "dtype": "float32"
                },
                {
                    "name": "conv5_block1_1_bn/moving_variance",
                    "shape": [
                        512
                    ],
                    "dtype": "float32"
                },
                {
                    "name": "conv5_block1_1_conv/kernel",
                    "shape": [
                        1,
                        1,
                        1024,
                        512
                    ],
                    "dtype": "float32"
                },
                {
                    "name": "conv5_block1_2_bn/gamma",
                    "shape": [
                        512
                    ],
                    "dtype": "float32"
                },
                {
                    "name": "conv5_block1_2_bn/beta",
                    "shape": [
                        512
                    ],
                    "dtype": "float32"
                },
                {
                    "name": "conv5_block1_2_bn/moving_mean",
                    "shape": [
                        512
                    ],
                    "dtype": "float32"
                },
                {
                    "name": "conv5_block1_2_bn/moving_variance",
                    "shape": [
                        512
                    ],
                    "dtype": "float32"
                },
                {
                    "name": "conv5_block1_2_conv/kernel",
                    "shape": [
                        3,
                        3,
                        512,
                        512
                    ],
                    "dtype": "float32"
                },
                {
                    "name": "conv5_block1_3_conv/kernel",
                    "shape": [
                        1,
                        1,
                        512,
                        2048
                    ],
                    "dtype": "float32"
                },
                {
                    "name": "conv5_block1_3_conv/bias",
                    "shape": [
                        2048
                    ],
                    "dtype": "float32"
                },
                {
                    "name": "conv5_block1_preact_bn/gamma",
                    "shape": [
                        1024
                    ],
                    "dtype": "float32"
                },
                {
                    "name": "conv5_block1_preact_bn/beta",
                    "shape": [
                        1024
                    ],
                    "dtype": "float32"
                },
                {
                    "name": "conv5_block1_preact_bn/moving_mean",
                    "shape": [
                        1024
                    ],
                    "dtype": "float32"
                },
                {
                    "name": "conv5_block1_preact_bn/moving_variance",
                    "shape": [
                        1024
                    ],
                    "dtype": "float32"
                },
                {
                    "name": "conv5_block2_1_bn/gamma",
                    "shape": [
                        512
                    ],
                    "dtype": "float32"
                },
                {
                    "name": "conv5_block2_1_bn/beta",
                    "shape": [
                        512
                    ],
                    "dtype": "float32"
                },
                {
                    "name": "conv5_block2_1_bn/moving_mean",
                    "shape": [
                        512
                    ],
                    "dtype": "float32"
                },
                {
                    "name": "conv5_block2_1_bn/moving_variance",
                    "shape": [
                        512
                    ],
                    "dtype": "float32"
                },
                {
                    "name": "conv5_block2_1_conv/kernel",
                    "shape": [
                        1,
                        1,
                        2048,
                        512
                    ],
                    "dtype": "float32"
                },
                {
                    "name": "conv5_block2_2_bn/gamma",
                    "shape": [
                        512
                    ],
                    "dtype": "float32"
                },
                {
                    "name": "conv5_block2_2_bn/beta",
                    "shape": [
                        512
                    ],
                    "dtype": "float32"
                },
                {
                    "name": "conv5_block2_2_bn/moving_mean",
                    "shape": [
                        512
                    ],
                    "dtype": "float32"
                },
                {
                    "name": "conv5_block2_2_bn/moving_variance",
                    "shape": [
                        512
                    ],
                    "dtype": "float32"
                },
                {
                    "name": "conv5_block2_2_conv/kernel",
                    "shape": [
                        3,
                        3,
                        512,
                        512
                    ],
                    "dtype": "float32"
                },
                {
                    "name": "conv5_block2_3_conv/kernel",
                    "shape": [
                        1,
                        1,
                        512,
                        2048
                    ],
                    "dtype": "float32"
                },
                {
                    "name": "conv5_block2_3_conv/bias",
                    "shape": [
                        2048
                    ],
                    "dtype": "float32"
                },
                {
                    "name": "conv5_block2_preact_bn/gamma",
                    "shape": [
                        2048
                    ],
                    "dtype": "float32"
                },
                {
                    "name": "conv5_block2_preact_bn/beta",
                    "shape": [
                        2048
                    ],
                    "dtype": "float32"
                },
                {
                    "name": "conv5_block2_preact_bn/moving_mean",
                    "shape": [
                        2048
                    ],
                    "dtype": "float32"
                },
                {
                    "name": "conv5_block2_preact_bn/moving_variance",
                    "shape": [
                        2048
                    ],
                    "dtype": "float32"
                },
                {
                    "name": "conv5_block3_1_bn/gamma",
                    "shape": [
                        512
                    ],
                    "dtype": "float32"
                },
                {
                    "name": "conv5_block3_1_bn/beta",
                    "shape": [
                        512
                    ],
                    "dtype": "float32"
                },
                {
                    "name": "conv5_block3_1_bn/moving_mean",
                    "shape": [
                        512
                    ],
                    "dtype": "float32"
                },
                {
                    "name": "conv5_block3_1_bn/moving_variance",
                    "shape": [
                        512
                    ],
                    "dtype": "float32"
                },
                {
                    "name": "conv5_block3_1_conv/kernel",
                    "shape": [
                        1,
                        1,
                        2048,
                        512
                    ],
                    "dtype": "float32"
                },
                {
                    "name": "conv5_block3_2_bn/gamma",
                    "shape": [
                        512
                    ],
                    "dtype": "float32"
                },
                {
                    "name": "conv5_block3_2_bn/beta",
                    "shape": [
                        512
                    ],
                    "dtype": "float32"
                },
                {
                    "name": "conv5_block3_2_bn/moving_mean",
                    "shape": [
                        512
                    ],
                    "dtype": "float32"
                },
                {
                    "name": "conv5_block3_2_bn/moving_variance",
                    "shape": [
                        512
                    ],
                    "dtype": "float32"
                },
                {
                    "name": "conv5_block3_2_conv/kernel",
                    "shape": [
                        3,
                        3,
                        512,
                        512
                    ],
                    "dtype": "float32"
                },
                {
                    "name": "conv5_block3_3_conv/kernel",
                    "shape": [
                        1,
                        1,
                        512,
                        2048
                    ],
                    "dtype": "float32"
                },
                {
                    "name": "conv5_block3_3_conv/bias",
                    "shape": [
                        2048
                    ],
                    "dtype": "float32"
                },
                {
                    "name": "conv5_block3_preact_bn/gamma",
                    "shape": [
                        2048
                    ],
                    "dtype": "float32"
                },
                {
                    "name": "conv5_block3_preact_bn/beta",
                    "shape": [
                        2048
                    ],
                    "dtype": "float32"
                },
                {
                    "name": "conv5_block3_preact_bn/moving_mean",
                    "shape": [
                        2048
                    ],
                    "dtype": "float32"
                },
                {
                    "name": "conv5_block3_preact_bn/moving_variance",
                    "shape": [
                        2048
                    ],
                    "dtype": "float32"
                },
                {
                    "name": "dense/kernel",
                    "shape": [
                        2048,
                        1024
                    ],
                    "dtype": "float32"
                },
                {
                    "name": "dense/bias",
                    "shape": [
                        1024
                    ],
                    "dtype": "float32"
                },
                {
                    "name": "dense_1/kernel",
                    "shape": [
                        1024,
                        512
                    ],
                    "dtype": "float32"
                },
                {
                    "name": "dense_1/bias",
                    "shape": [
                        512
                    ],
                    "dtype": "float32"
                },
                {
                    "name": "dense_2/kernel",
                    "shape": [
                        512,
                        256
                    ],
                    "dtype": "float32"
                },
                {
                    "name": "dense_2/bias",
                    "shape": [
                        256
                    ],
                    "dtype": "float32"
                },
                {
                    "name": "dense_3/kernel",
                    "shape": [
                        256,
                        120
                    ],
                    "dtype": "float32"
                },
                {
                    "name": "dense_3/bias",
                    "shape": [
                        120
                    ],
                    "dtype": "float32"
                },
                {
                    "name": "post_bn/gamma",
                    "shape": [
                        2048
                    ],
                    "dtype": "float32"
                },
                {
                    "name": "post_bn/beta",
                    "shape": [
                        2048
                    ],
                    "dtype": "float32"
                },
                {
                    "name": "post_bn/moving_mean",
                    "shape": [
                        2048
                    ],
                    "dtype": "float32"
                },
                {
                    "name": "post_bn/moving_variance",
                    "shape": [
                        2048
                    ],
                    "dtype": "float32"
                }
            ]
        }
    ]
}